Examples/trade/Res/Models/2_Multi_PDQN_actor.pt (torch, 88031 bytes, 4 tensors)

layers.0.weight f4 [128, 162]
00000000: ab0b 1e3e 98c3 8a3b dc33 abbd 0604 15bd
00000010: 1df3 adbd e382 c73c 647f 0dbd 99cd 973d
00000020: 498f dfbc c703 953d 46fe 603d 222c b1bd
00000030: d280 ebbc d385 26be f52e a33d 719a 12be
00000040: 5b37 85bd b10b 823e abab e73c 2636 86bd
00000050: b6d6 34be a003 0bbd 7ebe 1fbd b7db 863b
00000060: 4712 083d ae18 42bc c833 6ebd ca76 463e
00000070: e22a 8d3d be9f bd3b 0b72 c73d 71d2 2a3d
00000080: 1bb6 d23d 2815 f9bd 9442 8f3b 1f19 053e
00000090: bf7c 4abe 4dce 74bd 90d0 5fbd 8298 fb3d
000000a0: 29f8 d73d 2799 95bd 1412 62bd f10b 843d
000000b0: 253a 5e3d a557 07be 5f94 283d f3a1 cfbd
000000c0: 8eb2 0f3e 6cf5 093e 05cf 043e c2b0 453e
000000d0: 55c7 463e 22b1 33bd 2467 dc3d 6622 23bd
000000e0: b178 f73d cb77 47bd 9ec7 f93d 0195 30be
000000f0: 4eaa ae3b fd33 b93c 7d39 b23c ea6c cebd
00000100: 07a1 2dbd 896a 82bd 0bdd 7b3d e4ee dfbd
00000110: b2bb 5c3d dacf 013e 940f 2ebe c25a d6bd
00000120: d6ae 483d 33a9 b53d 7ed1 e6bc b768 f9bd
00000130: 03dc 7abd 3fad 92bd f5a5 403b 40c1 a4bd
00000140: da0d 773e 4fda 41bd 7e37 b6bd c6c4 2dbd
00000150: dfa9 073e c358 543d 469a 8abc 7a4e 013e
00000160: c23a aabd 1cbd 24bd d885 cfbd 917f 4abe
00000170: 33eb 8f3e cca4 323e 5366 12be 719a e23d
00000180: 2ac3 b83d ab95 c0bd ab2a 0f3e 5d96 c8bc
00000190: 27a6 1d3e 6316 c13c 8e64 68bd f27a 883e
000001a0: c554 cfbd 0f6e ae3d e2e6 e43d d0b0 44bd
000001b0: 2912 893d ee51 63bb 644c b43b c311 313d
000001c0: 5c9a 013e e471 13bd 2b4c 863d d10b 363e
000001d0: 303c d53d bdb0 853b afc0 b03e ad85 6c3d
000001e0: 0710 ed3d b6fc 93bd b326 a33c 79ca 12be
000001f0: e5d0 3b3d 52c1 433e cbd9 193d b4c8 103d
00000200: a793 18be d4ee ff3d 708b 2b3e 9fa3 70bc
00000210: 62bc 093d fe81 1dbe a1aa 463d a316 d73d
00000220: 5e55 02be c7a4 5d3c 39f4 b83d 6dd2 7ebd
00000230: 60ab 56bb 6683 1fbd 7d0f 99bd aa62 34be
00000240: 0605 b6bd 9612 423e d630 57bd cb82 593e
00000250: a128 24be e933 4abe 71b3 593d 6ecf 00be
00000260: 78a1 0fbe d3cf 08be 66f1 373e f37f 13bd
00000270: 8cbe 123e 77e8 963d 3acd 07be bcba 4abd
00000280: 92fb bf3d e05f 0dbe 6e20 3b3c 7ab5 8dbe
00000290: b73d 233e 1e46 f63c 098c 413e c6e3 d1bd
000002a0: a78a c6bc 5a1d 263e 200d 42bd 9271 92bd
000002b0: 59e0 debc 69d2 74bd c9ff c73d 6b3b b73c
000002c0: 771e f3bd 001d 6fbe e060 923d ad30 8e3e
000002d0: 5998 6a3d 8a85 acbd b4e6 a4bd 7b80 4bbe
000002e0: 8a3f a2bd 30d0 873d b909 3f3d 8e63 553d
000002f0: c19e f1bd 7114 773d adc9 0e3e 51b5 6b3d
00000300: bdfc 8fbd 4f6b d2bc 8913 e63d 42bb ecbc
00000310: 8685 523e a1f4 89bd df4e 29be 1cae 1bbc
00000320: cdf0 7b3e bab1 2cbe 6d08 ad3d 10c0 71bd
00000330: 2994 62bd 4661 d03d 97ef 883e 709a 94bd
00000340: 27b1 1ebe 5bbd 4fbd d335 f1bd b142 93bd
00000350: 3492 91bd 90c2 163d 4b52 d13d 4f80 16be
00000360: c796 a1bd 990a b1bd 07f6 3c3c d85d 16be
00000370: 93c0 163e 7eb9 a4bd a9dc 7dbb 0362 b1bd
00000380: bbfc 403d e882 e03d 3330 2ebd ac5c cc3b
00000390: 047d babc 1550 89bc ebe1 2e3e 7a16 23be
000003a0: 3483 05bd 3762 ac3e 812f 94be f35f 1b3d
000003b0: 4338 633d 2546 80bd aa44 373e 1c08 1fbd
000003c0: d28e 423d f3f3 9dbd 4461 babe 5f36 e93c
000003d0: da69 62be 7685 0c3e 2693 1dbe b06f 7c3c
000003e0: 1c80 43be f6f9 0f3e f811 1f3d 1bc6 963d
000003f0: 99d8 cf3b 73cd 1bbd d722 c53d e05f d43d
0.15434138 0.0042347424 -0.08359501 -0.03638079 -0.08493636 0.024354404 -0.034545317 0.074122615
-0.027290003 0.07276111 0.054929994 -0.08650996 -0.02874795 -0.16261987 0.07967941 -0.14316727
-0.06504699 0.25399545 0.0282801 -0.06553297 -0.1766003 -0.033939004 -0.039000027 0.0041155475
0.033220556 -0.011846704 -0.05815485 0.19381252 0.06892945 0.005786865 0.09738549 0.0417046
0.1028864 -0.12162238 0.0043719504 0.12997864 -0.1977415 -0.059767056 -0.05464226 0.12284948
0.1054538 -0.07304602 -0.055193022 0.0644759 0.05425467 -0.13217027 0.041157123 -0.10138311
0.14032957 0.13472527 0.12969597 0.19305709 0.19411977 -0.0438701 0.1076186 -0.039827727
0.12083567 -0.048698228 0.12196277 -0.1724434 0.0053303605 0.022607798 0.021755928 -0.100793675
-0.042389896 -0.06367976 0.0614901 -0.10934237 0.053889938 0.12676945 -0.1699813 -0.104665294
0.04899486 0.08870163 -0.028176066 -0.12178176 -0.061244976 -0.0716195 0.0029395793 -0.08044672
0.24126378 -0.047327336 -0.08897303 -0.042423986 0.13248394 0.051842462 -0.016919266 0.12627593
-0.083119884 -0.04021941 -0.101329505 -0.19775225 0.2810913 0.17445678 -0.14296846 0.110646136
0.090215996 -0.09403547 0.1398112 -0.024485761 0.15395413 0.023570245 -0.05673652 0.266563
-0.101235904 0.08517086 0.1117685 -0.048020184 0.06692917 -0.0034686285 0.0055022705 0.04322983
0.1265654 -0.035997286 0.06557497 0.17777945 0.104118705 0.0040799067 0.34522006 0.05774467
0.115753226 -0.07225935 0.019915914 -0.1433505 0.045853514 0.19116715 0.03756122 0.035347655
-0.14900075 0.12496725 0.1675241 -0.014687448 0.03362692 -0.1538162 0.04850257 0.105023645
-0.12727877 0.0135280555 0.09030957 -0.062212396 -0.0032755956 -0.03894367 -0.07473657 -0.17615762
-0.08887677 0.18952402 -0.052536808 0.212413 -0.16031124 -0.19746365 0.053149644 -0.12579128
-0.14026439 -0.13360529 0.1796318 -0.036010694 0.143305 0.07368558 -0.13261881 -0.04949449
0.09374155 -0.13806105 0.011421306 -0.27677518 0.15941511 0.030062731 0.18901075 -0.102485225
-0.024236036 0.16222134 -0.0473758 -0.07150568 -0.027206587 -0.059770975 0.09765584 0.0223672
-0.11871045 -0.23350906 0.07147384 0.27771512 0.057274196 -0.08423908 -0.08051816 -0.1987323
-0.07922275 0.066315055 0.04664013 0.052096896 -0.11797858 0.06032223 0.1394412 0.057545964
-0.07030628 -0.025685934 0.11234195 -0.028897885 0.20558748 -0.067361124 -0.16533993 -0.00950196
0.24603577 -0.16864672 0.08448873 -0.059021056 -0.055317078 0.101748034 0.26745293 -0.07256019
-0.15497266 -0.050717693 -0.11777844 -0.07190455 -0.07107964 0.036806643 0.10220774 -0.14697383
-0.078900866 -0.086445995 0.011533267 -0.14684236 0.14721899 -0.08043192 -0.003873626 -0.086612724
0.047116023 0.109624684 -0.042526435 0.0062366333 -0.02276469 -0.016761819 0.17078368 -0.15926543
-0.03259583 0.33668682 -0.28942493 0.0379333 0.055473577 -0.06263379 0.17897287 -0.038826093
0.047499485 -0.07712545 -0.36402333 0.028468309 -0.22110692 0.13722786 -0.15388164 0.015407488
-0.19091839 0.14060196 0.038835496 0.07362004 0.006342959 -0.03803773 0.09625786 0.10369849

layers.0.bias f4 [128]
00000000: 56b3 3fbe f324 b33c 0481 f13d c58a 61bc
00000010: f912 0e3e 871e 88bd bed1 02bd 683f 51bd
00000020: 49ab a43d ebd8 52bd e89c d73d ffba 7e3b
00000030: 114d 9dbc c850 2a3e cf4f 413d 1768 353d
00000040: aab8 f13d c1bf 07bc 4df2 b73d 7b74 da3d
00000050: 0000 0000 72e2 dd3d 2e3c 163e 9bce 98bc
00000060: 512b 963d 0ae9 44be 857b bcbd f565 92bc
00000070: 274c 72bd de18 c6bd 5c56 cb3d 42f0 94bd
00000080: 6edd 08bd e307 e0bc e60c 2e3e 9e40 b03d
00000090: b598 50bd 0a31 14bd 5b0c 843d 79b4 87bc
000000a0: d655 aabb b39c 373e 51c5 4e3d 24a7 643e
000000b0: c1b1 ffbd 199e cbbd 0000 0000 0000 0000
000000c0: 9977 fabc 9dcb ed3d 0000 0000 1aa2 433c
000000d0: 1a63 bf3d 9a2f c33d 5a80 dd3d d4b6 563e
000000e0: 31b5 2a3e cf5f 2f3e dabf b23d bec1 fa3d
000000f0: 1b66 cabb 0000 0000 b067 a4bd 0000 0000
00000100: 0000 0000 8e53 24bc 89b5 8e3e ceb9 b53b
00000110: 0000 0000 efc1 ccbc 0000 0000 57bf f7bd
00000120: 0000 0000 1d4b 1f3e 337b 10bd beb6 38bd
00000130: 0000 0000 aa1f cbbd 8639 4a3c 5331 76bd
00000140: 8195 693c 7f55 083e 67af 82bc e91a 7ebd
00000150: c42f 263c 2d22 ce3d 0000 0000 0000 0000
00000160: a29d 82bc 784d 1abe f03a 1abe a507 03bd
00000170: 2b2a c9bd d3e9 bdbc 0000 0000 c3d6 9bbc
00000180: 661c 093d f838 3abc 510b cb3d f24c f5bb
00000190: c464 2ebc 7532 c2bb efe6 50bd e375 4e3d
000001a0: e390 8cbc cfcf d63c 610a 6d3d 738c 36be
000001b0: 0000 0000 26c1 3a3d c2a3 223e ea23 93bd
000001c0: 3101 163e fde3 0c3d 9625 15bc 49d2 adbc
000001d0: b167 263e e780 35be 4187 f03b 721c 87bc
000001e0: 0000 0000 8d80 35bd 173c 173d 19ed 1c3e
000001f0: 52f4 c0bc c670 4c3e 10d1 dfbc 8966 d9bc
-0.18720755 0.021868205 0.11792186 -0.013765995 0.13874425 -0.06646448 -0.031938307 -0.05108586
0.080404826 -0.0514764 0.10527974 0.0038868783 -0.019201787 0.16632378 0.047195252 0.04428872
0.118028 -0.008285464 0.08981762 0.10666748 0.0 0.10834207 0.14671394 -0.018653205
0.07332481 -0.19229522 -0.09203247 -0.017870883 -0.059154656 -0.09672712 0.09928581 -0.07272388
-0.033414297 -0.02734751 0.16997108 0.08606075 -0.050926883 -0.03617958 0.06447669 -0.016565548
-0.0051982207 0.1793087 0.050481144 0.22329384 -0.12485076 -0.09942264 0.0 0.0
-0.030574607 0.11611102 0.0 0.0119405035 0.09345074 0.09530564 0.10815497 0.20968181
0.16670682 0.17126392 0.08727999 0.12243985 -0.0061767227 0.0 -0.08027589 0.0
0.0 -0.010029687 0.27872875 0.0055458313 0.0 -0.024994818 0.0 -0.12097042
0.0 0.15555997 -0.035273742 -0.04509615 0.0 -0.09918149 0.012342816 -0.060105633
0.014256836 0.13313864 -0.015952779 -0.062037382 0.010143224 0.10065112 0.0 0.0
-0.015944306 -0.15068614 -0.15061545 -0.031989712 -0.09822496 -0.023182785 0.0 -0.019023305
0.03347435 -0.0113661215 0.09914268 -0.0074859792 -0.010644142 -0.005926425 -0.051001485 0.050405394
-0.017158931 0.026222138 0.057871226 -0.17827015 0.0 0.045594357 0.15882781 -0.071845844
0.14648892 0.034397114 -0.0091031995 -0.021218436 0.16250493 -0.17724954 0.0073403423 -0.016493056
0.0 -0.04431205 0.03692254 0.1532482 -0.023554001 0.19964895 -0.027321368 -0.02653815

layers.1.weight f4 [6, 128]
00000000: 1108 2c3b 267a d23d cf7d 233d f476 883c
00000010: 83cd a23d 26b0 0cbd 22e4 603d f656 11bd
00000020: 031d d73c 1539 6a3d eb84 563d 8a00 1fbc
00000030: e380 8cbd 54d8 3c3e f794 f03c 71ef aa3d
00000040: c0e1 743d a384 9cbd 07fb c93c 598b 2b3d
00000050: c78e 9d3d 5168 923d 6278 523c 7570 e23c
00000060: 998c 103d 0e0c bfbc 8feb 17be feef 0abd
00000070: 51b8 943d 3f8b 6b3d 1122 053e 9035 7fbd
00000080: f9e2 2a3d 097a 843d 724c ae3d 58e3 e4bc
00000090: 6fdc 65bd c2cd 62be 08b3 e43c f438 8e3d
000000a0: c1ba 75bc 6ec3 bb3c 3a7d aeb9 d71a 433e
000000b0: 5fe1 96bd f97a 65bd cdfe 76bd 1c05 863c
000000c0: 5bf1 a7bd a6fc 2c3d 64c1 913d 721b 753d
000000d0: 778e 4b3b a4e1 913d 7e7a e43c 06b9 403d
000000e0: 03b1 0b3d cbae 193e d3e3 1b3d 2cfc 5f3c
000000f0: 456b b13c e5d3 293d 8236 e4bd 1a7b ca3c
00000100: 3fe1 9dbd c177 b5bd ff1d 963e 38f2 b03b
00000110: d082 dbbc efb1 90bd 29c0 8abc c6e9 d7bc
00000120: 555d 27bd 597f 66bb 4495 b7bc f73d 03be
00000130: 0321 423d 80da c9bd cea8 b5bd 5d03 05be
00000140: 0c8a 253d 3a6f 293e 74ce 9d3b 1725 a4bd
00000150: 84cb 74bd 659d 943d 0255 653d 0266 16bd
00000160: c587 a2bd 9988 4dbb e933 81bd 68cc 303b
00000170: f914 babd 8409 2dbe ff0d 6e3b 1795 b3bd
00000180: fb43 d43c 8b88 443d 9c66 263d 338c 99bd
00000190: e77b 56bc 0915 24bd 71f4 d8bd c8c2 9bbd
000001a0: 2b08 13bd f6eb 0a3d dfcb 09bd d311 ddbd
000001b0: 06f5 1e3d 63e9 62bd 1e5b 7abc 67e4 54bd
000001c0: fc55 bd3d e2df 953d 9a57 013d b837 39be
000001d0: 49af 153e c11e c7bd 4a48 f7bc 084d 943d
000001e0: 29af 7d3d 2d8a 1fbe ca18 ef3d 688e 483d
000001f0: 747a 23bc f607 443e 2b70 a4bc 994b 49bd
00000200: 37bf 9dbd 5129 d53c cddb 47bd 3a7f a43d
00000210: f81a f5bc bcda aabd 8803 a3bd 7a5c 663c
00000220: 592f 90bd 3175 a6bc 70fb 9a3d 5ece 653d
00000230: 1fd1 26ba 2e1a 51bd 4e10 2abc 17ff b1bc
00000240: 23d4 8f3d e9e9 2cbd faea 203c c6d7 5cbc
00000250: ab25 043c d2ef be3d a8a1 5e3d c22a e43b
00000260: dc70 283d 5ab2 c4bc e6f5 cfb8 a50a 783c
00000270: ec38 aabd 1a9d 97bd 26ee 84bc 2a3b 9fbd
00000280: c091 46bd bfc3 ccbc 0d3a ca3c 2e59 d4bc
00000290: 3165 77bd 5224 86bd e1dc f6bc 2086 74bd
000002a0: 1c17 523d 99b1 353d e94e 123d 6c9e 993d
000002b0: 1939 60bd 86cd 7fbd 3953 4dbc 03d0 673d
000002c0: 9494 963b a1e6 943d 78e4 e6bc acc0 a43d
000002d0: 81a7 0fbd b7a4 f23c 7e31 6c3d 3aac bc3d
000002e0: b6a8 323d 2843 a73d d307 823d 202d 4e3d
000002f0: 3fb2 15bd b10c af3d d10d 94bd 8eb0 873d
00000300: 76cd 98bd 69d3 823d 4b02 f33c 1790 3fbd
00000310: 2f45 b1bc b4b9 94bd 1b05 243c 0d64 31bd
00000320: ab16 3ebd a1a8 b93d 3623 35bd c679 923c
00000330: d5be d239 6790 8bbc c61f 863d c9f0 d3bb
00000340: eaad 4b3d fd2d 783e a830 93bc 852c 87bd
00000350: 791c dd3c bba0 d5bc ce67 ad3d e9f3 4ebd
00000360: b2a6 16bd b517 5bbc dd4d febc 9507 113b
00000370: 2840 343d 237f 973d ec31 1d3d e7eb 8b3b
00000380: 750e 37be 696b bcbc 3637 b73d c793 5e3d
00000390: b6fb aebb 15a9 8c3d 64ec 59bd b215 b43d
000003a0: 4473 19bd 6ce8 ae3d 4f0f 7d3d ba86 84bd
000003b0: cfa3 7cbd d520 ac3d 7adb b03d 81f5 243d
000003c0: f627 a53d e574 d73b 9b48 ddbd 2cb5 8b3d
000003d0: 6130 a13d 5868 a9bd 4f14 da3d dd9a 033e
000003e0: c3d3 b03c 3333 13bc 9d96 c6bd 9ee0 783d
000003f0: 3ea0 c93b 7b4a 10be fa8e 90bd 134f 543b
0.0026249925 0.10277204 0.039914902 0.016658284 0.079493545 -0.034347676 0.054905064 -0.035483323
0.026258951 0.057183344 0.052372854 -0.009704718 -0.06860521 0.18441898 0.029367907 0.08346451
0.059785604 -0.07642486 0.024655832 0.04188094 0.07693248 0.07148803 0.012846084 0.027641514
0.035290334 -0.023321178 -0.14835952 -0.03392028 0.07261718 0.057505842 0.13001277 -0.06230694
0.041720364 0.06468589 0.085106745 -0.027940437 -0.056118425 -0.22148803 0.0279174 0.06944457
-0.014998139 0.022920337 -0.00033281167 0.19053207 -0.07367205 -0.05602548 -0.06030159 0.016359858
-0.08200332 0.04223313 0.071169645 0.059840627 0.0031060257 0.07123116 0.02789044 0.047051452
0.03410436 0.15008084 0.038059067 0.013670962 0.021657595 0.041461844 -0.11143209 0.024716903
-0.07708978 -0.08860732 0.2931976 0.0053999685 -0.026795775 -0.07065188 -0.016937332 -0.026356589
-0.040860493 -0.003517112 -0.022410043 -0.12816606 0.047394764 -0.09856129 -0.088700876 -0.12989564
0.040414855 0.16546336 0.004815871 -0.08014887 -0.0597644 0.07256583 0.055989273 -0.036718376
-0.07936052 -0.0031361936 -0.06308729 0.0026977304 -0.090860315 -0.16898161 0.003632426 -0.08768671
0.025911322 0.04798178 0.0406252 -0.07497444 -0.013091064 -0.040059123 -0.105934985 -0.07605511
-0.03589646 0.033916436 -0.033641692 -0.10794415 0.03880789 -0.055398356 -0.015280513 -0.051975634
0.09244916 0.07318093 0.031577684 -0.18087661 0.14617647 -0.09722663 -0.030185837 0.07241255
0.061934624 -0.15580054 0.1167465 0.048963934 -0.009977926 0.19143662 -0.020073017 -0.04914436
-0.07702487 0.026020678 -0.048793603 0.08032079 -0.029920086 -0.083425015 -0.07959658 0.014060134
-0.07040281 -0.020319553 0.07567489 0.05610501 -0.0006363559 -0.051050358 -0.010379864 -0.021728082
0.07022884 -0.04221526 0.009821648 -0.013479179 0.008065621 0.09323086 0.054353386 0.006963105
0.041123256 -0.024010826 -9.916331e-05 0.015139257 -0.08311638 -0.074030116 -0.01622684 -0.077749565
-0.04847884 -0.024995683 0.024685884 -0.02592143 -0.060399238 -0.06549896 -0.03013462 -0.059698224
0.05129157 0.044358823 0.035719786 0.0750092 -0.054741953 -0.06245186 -0.012532049 0.05659486
0.0045953486 0.072705515 -0.028185114 0.08044562 -0.035071854 0.029619558 0.057664387 0.09212537
0.043617927 0.08167106 0.063491486 0.050336003 -0.03654694 0.085473426 -0.07229198 0.06625472
-0.074610636 0.063879795 0.02966418 -0.046768274 -0.021639435 -0.072619826 0.010010983 -0.043308306
-0.046408337 0.090653665 -0.044223033 0.017880332 0.00040196502 -0.01703663 0.06549029 -0.006467913
0.049726404 0.24236293 -0.017967537 -0.06600288 0.026991116 -0.026077619 0.08467065 -0.05052558
-0.036780067 -0.013372351 -0.031042987 0.0022129763 0.044006497 0.07397296 0.038377687 0.004270065
-0.17876609 -0.023000436 0.089460775 0.05434015 -0.005340065 0.06868187 -0.053203955 0.087932006
-0.03746344 0.08540425 0.061782178 -0.064710096 -0.061679658 0.084047 0.08635612 0.040273193
0.080642626 0.006575214 -0.10804864 0.06821665 0.07870556 -0.08271855 0.10648405 0.12852044
0.02158535 -0.008984375 -0.09696696 0.060761087 0.0061531356 -0.14090912 -0.070585206 0.0032395765

layers.1.bias f4 [6]
00000000: a20a be3d 3da5 033e 773d d13d 7121 263e
00000010: b783 343d 0000 0000
0.09279372 0.12856002 0.102168016 0.16223694 0.044070926 0.0
