Examples/trade/Res/Models/2_Multi_PDQN_actor_param.pt (torch, 88087 bytes, 6 tensors)

layers.0.weight f4 [128, 2]
00000000: fd66 11bf ab0a 973f b664 9dbe 36af 45bf
00000010: 3463 c63e 1850 363f babd 333e 100a 433f
00000020: f1fd 84bf c196 8dbe 7b3e a93f 80e1 a7be
00000030: d56d 04bf d8a4 c6be 8300 93be a250 873f
00000040: b0f7 523f daa5 dabe 3636 913d 2ad4 bfbc
00000050: 58ba 5abf acca 473f 3a2d 1e3e fad2 a1bd
00000060: b8e0 fbbf fd14 e73f fa32 423f 3269 30bf
00000070: a20e 40bf e30e 06be 1e59 823c d33c b6bd
00000080: 47ca 3abf 2b4c a43e a182 2f3e 9a17 22bf
00000090: c2ef debe 599a 9abf ebaa 45be 743a 583d
000000a0: 7ad9 85bf 217a 99be cb35 43bf bd94 79bf
000000b0: fbec 34be b816 e0bf c908 ce3e 05b5 723f
000000c0: 1ff9 2dbd 9a1e 0ebf 44c4 513f 50e5 c9bf
000000d0: 2cf9 653f cb76 963e fa9e 03bf f9af 91bf
000000e0: 7468 543f 614e a83f 0a4c 103f 6e53 0abd
000000f0: 9eb5 e0be a4b2 54bf a25b ccbf 3740 31c0
00000100: c2e9 ce3c e79c cb3e 33fd 9a3e 7263 c6be
00000110: c7bd cb3e 1170 3e3f ee25 8b3f 37fb 203f
00000120: 55be 6dbf 4ccd 573f 3e89 ab3f 4b35 28bf
00000130: e024 3dbf 4b7a ce3e 4cfe 3440 2e63 cc3f
00000140: e8a9 c5bf d6c9 cf3d 0654 36bd e0d2 ee3e
00000150: eb50 fdbe f8e7 57be d9f0 283f 7b55 c63f
00000160: 12a5 fe3f a113 ce3e f283 7cbf 3c8d c13e
00000170: 883a 6e3e 51e6 9e3f 3bad 243f 7075 023f
00000180: a6bb 303f b5a2 5e3f d80a 823d f13c 01bf
00000190: 9c82 9b3f bfbb 02be ee13 46bf 6b4d 3cbf
000001a0: 6363 9c3e 96d0 593f 26bc e2bd ea39 03bf
000001b0: ea6f c2bf a5af 6ebd ede9 2abf b475 95be
000001c0: f916 b8bf cd14 cdbe 12d6 36bf de6c e4bf
000001d0: 4efc a53f f591 9f3f 3e81 a7be 5404 673e
000001e0: 903a 283f 0875 703e 98f1 f6bf c0f2 66be
000001f0: b409 1dbf 56c3 72be fc1a 8fbe 8f1b cb3f
00000200: 1f0f 6d3f cdbd 0840 3d97 7f3f b20c 5cbf
00000210: fc86 45ba 1bfc e3bf 982f e13f caeb 22c0
00000220: 1033 063f 94e6 ee3f 154b d73f 26ae bd3e
00000230: 57bf 703e 2026 04bf c9d2 33bf aa86 9dbe
00000240: a5dc de3f b1bb 6e3f 98d4 ab3f 7ef3 a53e
00000250: 4bbf 0c3e daf6 cfbd b2e4 c7bc 821e c83e
00000260: f7e0 893e 3c30 c4be f280 cdbf 9c3d 0ebf
00000270: 0e4e 8e3e 1f8a 903e 6e0c 573f 0147 e6be
00000280: fac0 c2be 696a f2be 56d7 80bf 1afb 41bf
00000290: 9276 423d 4c25 4cbf a7ad 57bf 4454 743f
000002a0: 067b bf3e 68ac bb3f a745 8fbf 1783 573f
000002b0: 5857 ed3f c990 2f3f f75d ccbe f257 2bbd
000002c0: eac6 00be 2109 f33f 3796 093f 4c1a 5e3f
000002d0: 8155 93bf d8e1 0abd 4bf5 983f 72a4 073f
000002e0: a870 0240 88f9 3fbf d7ba 96be 5761 c03e
000002f0: 5521 803f a6eb a0be 2caa 1c3f c621 123f
00000300: 1c32 0a40 cb70 573f de19 fb3e 6dae b6bd
00000310: 664d f63c fe23 9a3f ed8e 94be e436 573e
00000320: 3987 07be 8b99 a2bf 5b80 a8be 53b4 92be
00000330: 3977 9abc 11ed a4bf e8eb 6fbe 7f33 a83f
00000340: 8156 b3bd 6a23 11bf 5257 ddbf 4ea5 a43f
00000350: 7928 c63d 62c9 d7be 33d6 1e3d f57f 943e
00000360: 46d6 d73e 9105 483e 7391 bdbe 6a67 423f
00000370: c931 29c0 b7d6 bd3f 671b bfbf 9dd1 64bf
00000380: 25b7 ddbf c1ec 8f3e 9a46 aebf 74ee 69bd
00000390: 6e6c 583f 3266 883f a3ef 063f f36f 663f
000003a0: 3514 41bf 803d 083f a7ce 103f 337a d7bf
000003b0: 9e02 d1bf 6eef 043f 1a37 c73f 3901 e7bf
000003c0: 590b 8dbe 25c7 99bf a93f 733f 664c 23bf
000003d0: 39a0 503f 2b92 dc3d 30ee 26bf f596 b3be
000003e0: 04dc 66bf 3323 f43e 7d67 b9bd 146e 2940
000003f0: e67c 003d cf80 f4be c0c1 f63d b4f3 03be
-0.5679777 1.1800131 -0.307409 -0.77220476 0.3874756 0.71215963 0.17552844 0.7618723
-1.0389997 -0.2765408 1.3222193 -0.3278923 -0.5173009 -0.3879764 -0.28711328 1.0571482
0.8240919 -0.4270466 0.07090418 -0.023416597 -0.8544059 0.7804363 0.1544694 -0.07901569
-1.9677954 1.805328 0.75859034 -0.68910515 -0.7502233 -0.13091616 0.015911635 -0.0889832
-0.729649 0.32089362 0.17139675 -0.63317263 -0.43542296 -1.2078353 -0.19303481 0.05279012
-1.0456994 -0.2997599 -0.76253957 -0.9749258 -0.17668526 -1.7506933 0.40241078 0.94807464
-0.04247391 -0.55515444 0.819401 -1.5773106 0.8983333 0.29387507 -0.51414454 -1.1381828
0.8297188 1.3148919 0.56366026 -0.03377097 -0.43888563 -0.83085084 -1.5965464 -2.7695444
0.025257949 0.39768144 0.302713 -0.38747746 0.39793226 0.7438975 1.087095 0.62883323
-0.9286855 0.84297633 1.3401258 -0.6570632 -0.7388439 0.40327677 2.828021 1.5967767
-1.5442476 0.10145919 -0.044513725 0.4664526 -0.49475798 -0.21084583 0.65992504 1.5494837
1.9894125 0.4024935 -0.9863883 0.37803066 0.23264515 1.2414037 0.6432683 0.50960445
0.6903633 0.8696702 0.063497245 -0.50483614 1.2149234 -0.12766932 -0.7737416 -0.7355563
0.30544576 0.850839 -0.11071043 -0.51260245 -1.5190403 -0.058272976 -0.6676319 -0.29191363
-1.4382011 -0.40054932 -0.71420395 -1.7845724 1.2967622 1.2466418 -0.3271579 0.22560245
0.6571436 0.23482144 -1.9292479 -0.2255354 -0.6134293 -0.23707327 -0.27950275 1.5867785
0.926012 2.1365845 0.99840146 -0.8595687 -0.0007535068 -1.7811311 1.759265 -2.5456414
0.52421665 1.8664117 1.6819788 0.37046927 0.2351049 -0.51620674 -0.7024351 -0.30766803
1.7411085 0.93255144 1.3424253 0.32412332 0.13744847 -0.10154505 -0.024401043 0.39085776
0.26929447 -0.3831805 -1.6054976 -0.5556276 0.27793926 0.28230378 0.8400334 -0.44976047
-0.38037854 -0.4734681 -1.0065715 -0.75773776 0.04747636 -0.7974441 -0.8424935 0.9544108
0.37398547 1.4661989 -1.1193131 0.841844 1.854228 0.685803 -0.3991544 -0.041831918
-0.1257588 1.8987161 0.53744835 0.86758876 -1.1510469 -0.033906788 1.1949857 0.529853
2.038126 -0.7499013 -0.29439422 0.37574264 1.0010172 -0.31429785 0.6119716 0.57082784
2.1593084 0.84156483 0.49043173 -0.08919988 0.030066203 1.2042234 -0.29015294 0.21017033
-0.13235177 -1.2703108 -0.32910427 -0.286532 -0.018855678 -1.2884847 -0.23429835 1.3140715
-0.08756734 -0.5669466 -1.7292273 1.2862947 0.09675688 -0.4214583 0.038778495 0.29003873
0.42155665 0.19533373 -0.3702503 0.7593905 -2.6436636 1.4831151 -1.4930238 -0.89382344
-1.7321516 0.28110316 -1.3615296 -0.057112172 0.8454045 1.0656188 0.52709407 0.9001457
-0.7542146 0.5321884 0.56565326 -1.6834167 -1.6328924 0.5192784 1.5563691 -1.8047248
-0.2754772 -1.2013899 0.9501901 -0.6378845 0.8149448 0.10770067 -0.65207195 -0.3507611
-0.9017947 0.47683105 -0.09052942 2.6473436 0.031369112 -0.47754523 0.12048674 -0.12885934

layers.0.bias f4 [128]
00000000: 2ed7 573d 0000 0000 ad1f 353d 5680 3b3d
00000010: 0000 0000 a66f 17bd 0000 0000 f22b 563d
00000020: 60d5 2dbd 5129 39bd 4ff7 fd3c 21cf 37bd
00000030: e6c1 fb3c 924d 32bd 0000 0000 9c1b 15bd
00000040: 721f 473c aece 2dbd 0000 0000 c3f7 753c
00000050: 0000 0000 0000 0000 0000 0000 d479 363d
00000060: 0000 0000 92af 2dbd 1c67 103d 0000 0000
00000070: 84d2 313d a2f8 95bc 0000 0000 0000 0000
00000080: 1c8d 423d e75a 30bd e77d 353d bfbc 203d
00000090: 0860 fc3c 32e8 29bd 536f 923c d880 1c3d
000000a0: f830 033d 6447 763d 0000 0000 846b 353d
000000b0: c73e f03c 7b3d 563c bb9c 3a3d 8d5b 2a3d
000000c0: b33c 303d e976 99bc 4d47 d6bc 0000 0000
000000d0: 26d9 383d 0000 0000 0000 0000 0000 0000
000000e0: 0000 0000 0000 0000 a716 2b3d 7709 cb3c
000000f0: 7012 123d 0000 0000 0000 0000 6544 5a3d
00000100: bc11 363d 0749 31bd 6660 6eb9 079a 2dbd
00000110: 05df 373d 9c3a ec3c 3439 2fbd 0000 0000
00000120: 57f2 1d3d 9102 fd3c ac5b 38bd 95fa 4e3d
00000130: 1ec5 2fbd 0000 0000 3d77 313d d47a 2bbd
00000140: 0000 0000 0000 0000 e896 2d3d 0385 383d
00000150: 63cb 383d 757c d63c 7f3b 103d 0000 0000
00000160: 7f4d 5b3d 086c 333d 0000 0000 f4bf 153d
00000170: 630b 24bd ae8d 413d 11a8 21bd d615 2c3d
00000180: 6f9c 123d 277c 00bd f99e 413d bfe4 d63c
00000190: 0000 0000 0000 0000 0000 0000 b86a 593d
000001a0: 0000 0000 8f5b d23c bf41 2ebd b743 423d
000001b0: f31a 1f3d 8557 573d d9d4 923c 0000 0000
000001c0: a90c 023d 0000 0000 71bf 303d 7713 353d
000001d0: 7052 cd3c 3b40 2dbd bf2d 4c3c 8f5e 2dbd
000001e0: 0000 0000 6f4c 2bbd 4ef4 b03c 0000 0000
000001f0: 55cf 8c3c 8ca0 483d a812 213d 7e62 37bd
0.052695446 0.0 0.04421966 0.045776688 0.0 -0.03697171 0.0 0.052288003
-0.04243982 -0.045205418 0.031001715 -0.044875268 0.030732106 -0.043531008 0.0 -0.036403283
0.012153493 -0.042433433 0.0 0.015012684 0.0 0.0 0.0 0.044549778
0.0 -0.042403765 0.035254583 0.0 0.043413654 -0.018307034 0.0 0.0
0.047497854 -0.04305544 0.044309523 0.039242502 0.03080751 -0.041481204 0.01787535 0.038208812
0.032029122 0.060126677 0.0 0.044291988 0.02932681 0.0130761815 0.045559626 0.041591216
0.043026637 -0.018733459 -0.026157046 0.0 0.045128964 0.0 0.0 0.0
0.0 0.0 0.04176965 0.024784787 0.035662115 0.0 0.0 0.053287882
0.044450507 -0.043282535 -0.0002273336 -0.04238322 0.044890422 0.02883654 -0.042779163 0.0
0.03856119 0.030885013 -0.0450093 0.050531942 -0.042912595 0.0 0.043326605 -0.041865185
0.0 0.0 0.042380244 0.045048725 0.04511584 0.026182393 0.03521299 0.0
0.053540703 0.0438042 0.0 0.036560014 -0.04004992 0.047254257 -0.03946692 0.042013012
0.035793718 -0.0313684 0.04727075 0.026232122 0.0 0.0 0.0 0.05308029
0.0 0.025678424 -0.04254317 0.04742786 0.03884406 0.0525737 0.01792376 0.0
0.031750355 0.0 0.043151323 0.044208016 0.025063723 -0.042297583 0.012462079 -0.042326506
0.0 -0.04182094 0.021600869 0.0 0.017188707 0.048981234 0.039324433 -0.044771664

action_parameters_output_layer.weight f4 [160, 128]
00000000: b024 243c 05b4 dbb8 e218 c23a bea7 3d3b
00000010: b579 35b9 bcfa 92b9 5f4f 1839 ddb1 1e3c
00000020: 424d e5b9 c021 81ba 3b56 2e3b 13c8 34ba
00000030: 405d 0a3b e154 5aba ce35 36b7 f6a0 a5bb
00000040: 9fc8 eabb 71a9 ebba 49f8 1a39 5ade 6dbb
00000050: 99a3 b437 f6bb ecb8 bc58 1439 add0 d03a
00000060: f2d2 23b8 fae6 8fba 8163 a539 bd15 0938
00000070: 9699 9c3a 2631 9438 319a 8638 bfe0 1939
00000080: 5362 be3b 06c4 8bba 541b bf3a 78db 023a
00000090: ca67 123b 9964 efb9 fe85 c6bb d9ca f139
000000a0: fcad a43c e769 903c f867 a838 369f c73a
000000b0: 640e 8739 3516 ddbb 7edc 443b f3f4 613a
000000c0: 6d2f 693a 038b 9c3a 9b75 24b9 5cfd 33b9
000000d0: 4937 f93a 7356 0d38 557e 3db8 94d7 0239
000000e0: 0ccc b1b8 9253 ceb8 19ee 1f3a ae22 2bbb
000000f0: e890 9739 2ef5 97b8 47a4 80b8 d72d 533c
00000100: f4a9 cf3a 52f0 74ba cc66 14ba 827f 87ba
00000110: 6c7f 0e3b 720f 9e39 af44 b2ba d320 b138
00000120: e2ef f439 c045 b439 cebe 85ba c8d0 963c
00000130: 6198 96ba 8f59 0838 e100 743a d091 00ba
00000140: 513a e738 efef 9639 448d f13c 22c2 d23b
00000150: 39af 2a3b c2a2 c7ba 0792 8139 5129 86b8
00000160: 87b2 b03c d1f4 9d3a 62a9 91b8 bd31 a539
00000170: 9f17 86b9 3e73 1a3c 843d 5eb9 b06c 263a
00000180: 495c 8139 e134 b5b8 4197 b23b 21db e1ba
00000190: b8ad 3739 54a7 3839 1d74 1739 228c 4d3c
000001a0: 78b1 aeb4 4669 f3ba 9da8 07bb 9fe0 9c3b
000001b0: 31d9 0b3a 48ba 2a3c a576 bdbb b2cd fd38
000001c0: 8ca1 973c 8625 4e37 2c33 793a 8a1b c43a
000001d0: 4318 2dbb ff8b d5ba fdbe d6bb 5534 56ba
000001e0: b407 0a38 215e dbb9 6da8 b437 f142 99b6
000001f0: b792 d8bb b10f 5b3c baf9 e33c 84b1 d1ba
00000200: e67d 293c 0080 8437 7bbf 003b 8ae6 6a3b
00000210: 75c2 dcb8 14ec b5b9 9870 64b7 8ec3 3f3c
00000220: 6d62 42ba 55bd 5bba ef20 dc3a e2a3 8dba
00000230: 15b3 aa3a 024f 84ba d863 ceb8 df7c 8cba
00000240: 75b6 9ebb 1e0f 1cbb a21f 4839 dbbf f9b6
00000250: fc60 27b8 a038 d6b7 dda3 01b9 526f 193b
00000260: 0350 0239 fad6 f3ba 2238 af39 b8c2 da38
00000270: ddb0 e03a 326a 44b9 fa16 8fb8 4efa 9438
00000280: 4474 b53b 0878 e7ba 4dea fd3a 4f0d 073a
00000290: dda5 b03a 0c64 41ba 1f7f 95bb 72fa 303a
000002a0: 3dbd 9a3c b482 973c 3f1c 50b9 51f6 133b
000002b0: a8c4 4039 e94f 85bb ca85 7c3b a080 6a3a
000002c0: dc3f b83a 8b32 293b 0c6d 95b9 50ac efb7
000002d0: e62b 2d3b 6d8d d7b8 dcd3 9e38 383e 6738
000002e0: d556 c438 39fa 9d38 ebce 993a cd9a 01bb
000002f0: 680d c039 da06 d438 b484 98b7 c20c 5e3c
00000300: 140c 133b 461d 94ba 7335 20ba 5b71 ceba
00000310: c5e0 493b d5a5 d339 c76a 0fbb 4736 9cb8
00000320: 18a6 0b3a 1649 2e39 28ca 9cba d0a3 4b3c
00000330: d0bc deba dc6d 6d38 0b1a a53a e82d 43ba
00000340: 1687 b1b7 d47f 12b9 f731 eb3c c484 c13b
00000350: 8647 4a3b 5e06 aaba db50 b839 eeac 8037
00000360: c132 813c 8f7e e53a 6b99 d138 0bd1 ea39
00000370: dd2d c2b9 9b0e 0c3c e51c 42ba 0c01 873a
00000380: 6557 f939 f6df 44b9 6b57 a53b 7b9f 8dba
00000390: a521 ea37 9b4e 0039 7654 9938 eb01 613c
000003a0: bfd0 27b9 3bb8 d5ba 6196 11bb 565e a63b
000003b0: 18af 0a3a 8b06 313c 8f4e 93bb 3fd4 8239
000003c0: b2cf 8d3c 01d4 40b8 0160 ad3a 925b e33a
000003d0: 2302 1abb 7b1d 0fbb eaca 32bb d5ee bfba
000003e0: c1c5 04b9 e95a 54ba 196b 4638 883e 9a38
000003f0: 1c36 a4bb 5909 223c a85f e43c 47a1 c5ba
0.010018513 -0.00010476265 0.0014808441 0.0028939093 -0.00017306845 -0.00028034102 0.00014525418 0.009685961
-0.00043735845 -0.0009851977 0.002660169 -0.00068962685 0.002111271 -0.0008328688 -1.0860573e-05 -0.0050545884
-0.007165029 -0.0017979575 0.00014779078 -0.0036295862 2.1533853e-05 -0.000112883674 0.00014147436 0.0015931331
-3.9058687e-05 -0.001097887 0.0003154539 3.268359e-05 0.0011947628 7.0663446e-05 6.418338e-05 0.00014674941
0.005810061 -0.0010663278 0.0014580288 0.000499181 0.0022339695 -0.00045660583 -0.0060584536 0.00046118235
0.020102493 0.017628623 8.03023e-05 0.0015229944 0.00025759928 -0.006747032 0.003003865 0.0008619569
0.00088953116 0.0011943284 -0.0001568407 -0.00017165154 0.0019013669 3.369753e-05 -4.5178767e-05 0.00012478075
-8.4780244e-05 -9.838412e-05 0.0006100848 -0.00261132 0.00028908928 -7.2459094e-05 -6.134115e-05 0.012889347
0.0015843497 -0.0009343672 -0.000566107 -0.0010337683 0.002174343 0.00030147616 -0.0013600792 8.446132e-05
0.00046718033 0.00034384243 -0.0010203959 0.018410102 -0.0011489504 3.2508335e-05 0.00093079923 -0.000490454
0.000110258006 0.00028788994 0.029486306 0.006431834 0.0026044382 -0.0015231001 0.00024713596 -6.397314e-05
0.021569503 0.001205111 -6.945689e-05 0.0003150831 -0.0002557607 0.00942689 -0.00021194486 0.0006348593
0.00024673555 -8.640602e-05 0.00545016 -0.0017231443 0.00017516955 0.00017609942 0.00014443738 0.012545617
-3.253915e-07 -0.0018570803 -0.0020699867 0.004787519 0.0005334793 0.0104203895 -0.005781966 0.00012102294
0.018509649 1.2287293e-05 0.00095062214 0.001496182 -0.0026412166 -0.0016292332 -0.0065535293 -0.000817125
3.2908938e-05 -0.00041841067 2.1536101e-05 -4.5675483e-06 -0.0066092866 0.01337044 0.02782904 -0.0015998338
0.010344958 1.579523e-05 0.0019645381 0.0035842978 -0.00010526638 -0.00034698902 -1.3616074e-05 0.011704339
-0.0007415179 -0.00083823997 0.0016794483 -0.0010806287 0.0013023341 -0.0010094347 -9.841443e-05 -0.0010718367
-0.004843528 -0.0023812721 0.0001908527 -7.443113e-06 -3.9906226e-05 -2.5537156e-05 -0.00012363443 0.00234123
0.00012427573 -0.0018603497 0.00033420423 0.00010431319 0.0017142553 -0.00018731577 -6.823051e-05 7.103813e-05
0.0055375416 -0.0017659673 0.0019372195 0.00051518244 0.0013477165 -0.0007377274 -0.004562273 0.00067511864
0.018889064 0.018494941 -0.00019846948 0.0022577236 0.00018383807 -0.004068364 0.0038531893 0.0008945558
0.0014057118 0.002581748 -0.0002850074 -2.857126e-05 0.002642387 -0.000102783415 7.573489e-05 5.5132637e-05
9.362182e-05 7.532951e-05 0.001173464 -0.0019776106 0.00036631082 0.00010110224 -1.8181607e-05 0.013552846
0.002243762 -0.0011300228 -0.000611148 -0.0015750335 0.003080414 0.0004036861 -0.0021883713 -7.4487696e-05
0.0005327179 0.0001662116 -0.0011962103 0.012429193 -0.0016993526 5.6607518e-05 0.0012596262 -0.00074455
-2.1162949e-05 -0.00013971265 0.028710349 0.0059057195 0.0030865385 -0.0012971868 0.00035155457 1.5339316e-05
0.015771272 0.0017509031 9.994473e-05 0.00044787707 -0.00037036734 0.008548404 -0.00074048183 0.0010299995
0.00047558095 -0.00018775449 0.0050458214 -0.0010804975 2.791064e-05 0.00012236314 7.3113406e-05 0.013733367
-0.00016004125 -0.0016305515 -0.0022214877 0.0050771637 0.0005290373 0.010804783 -0.004495449 0.00024953668
0.01731095 -4.597381e-05 0.0013227464 0.0017346016 -0.0023499809 -0.002183764 -0.002728159 -0.0014643321
-0.0001266217 -0.0008100705 4.730662e-05 7.3549396e-05 -0.005011333 0.009889924 0.027877644 -0.0015077972

action_parameters_output_layer.bias f4 [160]
00000000: fa4d 4f3d 7ab1 153d 3a5f 203d a32c e93c
00000010: d211 9e3c dd62 6f37 b65d 933c 3a98 e037
00000020: b07e d53c 0150 913b e490 bd3b 17df 113d
00000030: 0956 023d 75b5 0c3d 2240 283d 5984 8938
00000040: 84e5 713c 8a2b 083d abfc 513c e89e 863b
00000050: 78ef 163d 1a05 943c bd94 1c3d 4738 253d
00000060: c405 443c e0c5 843c 1d91 b83c f824 f93c
00000070: 3787 d33c 1658 fe3b 86f6 a33c 4874 003d
00000080: 5b4b 5a3b 358e 0f3c 7b55 053d 57d1 393c
00000090: c8d5 493a b745 f239 3977 093b 821a 9a3b
000000a0: 5fd8 0639 aefd a93a 38f0 263d 0b1f d63b
000000b0: f020 663c dabb 9f39 0f4f c4b8 dbe6 413a
000000c0: 7270 113b 4952 9239 6f68 4d3b e467 95b8
000000d0: 5f39 003d 5111 993c 9ca1 f53c 9b71 853b
000000e0: e1dc d83c 00f8 1c3c f38c 163d 4612 633c
000000f0: 5250 403a 7beb fa3c a2a3 a63c 4cf3 433a
00000100: d38e c43c 7603 c73c 04b9 8f3a 9716 b33a
00000110: 6b88 0b3b 944f a93a 33f1 e53c 19cf 093d
00000120: 62bf 2b3c dfd0 f83c a6b7 0e3d 8800 063d
00000130: b42f 3f3d 217c 483c 20db d73a c3d7 0a3d
00000140: cce6 473a 2fa6 ce38 a48b 973c 8a8a bc37
00000150: e2b6 e73b 8cb6 0a3d 552c 193d 6bd4 b53c
00000160: 4b67 db3c 4625 8136 1263 423a d861 973c
00000170: baea 113d a169 493c f643 eb3c 8a2c c53a
00000180: 11b7 563d a32e 3f3d e7b2 833c 1b22 013d
00000190: 2ef7 053d f9b1 3b3a c901 60b7 c5e6 8d3c
000001a0: ecb4 6c38 b367 213b 093f 133d e92a c03c
000001b0: f9a2 003d d1f5 193d cc32 b638 1844 103c
000001c0: 3337 a93c 42be a638 a130 453d 1d4e 0b3c
000001d0: 7fe4 d638 82c2 d63c 23fc dc3c 6021 113d
000001e0: 7028 1b3d 8db9 143d ff5d c83c 99f6 083d
000001f0: 1899 df38 eef5 cb39 7ba6 203a d0b6 bb3c
00000200: 7920 8c3c f2a4 353d 7bdd 0e3d 5cb5 eb3c
00000210: 25f7 183d f3dc 3b38 915a 1b3d 54b6 b03c
00000220: 6125 d03c 985a 933c cc03 783c f845 e43c
00000230: 23b5 713a 2cb1 f63c 1a7e 363b 28ef 4a3c
00000240: dc08 283d 1ac6 0fb7 c019 093c d155 553c
00000250: 0e50 5a3c c1f1 d73c 6c1e 193d 7407 233d
00000260: 2a3b 9a3c bae2 013b 6e9b ef3b 44b9 013d
00000270: 4871 033d 236c 7d3b 6b7a ea3c 2ad9 2a3d
0.050611474 0.036546208 0.039153315 0.028463667 0.019295607 1.42685285e-05 0.01798902 2.6773767e-05
0.026061386 0.004434586 0.0057850946 0.035613146 0.03182033 0.03435274 0.041076787 6.557321e-05
0.014764193 0.033244647 0.012816588 0.0041082986 0.03684947 0.018068839 0.038227785 0.040336873
0.011964265 0.016207635 0.022530133 0.030413136 0.025821311 0.0077619655 0.020015012 0.031360894
0.0033309076 0.008761932 0.032552224 0.011341414 0.00076993974 0.00046209779 0.0020975603 0.004702867
0.0001285984 0.0012969279 0.040756434 0.0065344623 0.014045939 0.00030466804 -9.360734e-05 0.0007396766
0.0022192267 0.00027908597 0.0031342765 -7.124225e-05 0.031304713 0.018685015 0.029984288 0.0040723807
0.02647251 0.009580612 0.036755513 0.013859337 0.00073361874 0.030629864 0.020341698 0.0007474914
0.023993885 0.024293642 0.0010965173 0.0013663349 0.0021291028 0.0012917393 0.028069114 0.03364477
0.010482641 0.030373035 0.03484311 0.03271535 0.046676353 0.012236626 0.0016468503 0.033897173
0.0007625639 9.8537996e-05 0.018499203 2.2475859e-05 0.007071362 0.033865497 0.037395794 0.022196015
0.026782652 3.848839e-06 0.00074152753 0.018479273 0.035624243 0.01229325 0.02871893 0.0015043181
0.05242068 0.046675336 0.016076518 0.031526666 0.032706432 0.0007160004 -1.3351856e-05 0.017321954
5.643528e-05 0.002462846 0.035948787 0.023457961 0.031405423 0.037587944 8.687898e-05 0.008805297
0.020656204 7.950935e-05 0.04814208 0.00850251 0.00010246876 0.026215795 0.026975697 0.03543222
0.03788036 0.036309768 0.024458883 0.0334383 0.000106619846 0.0003890241 0.0006128323 0.02291432
0.017105328 0.044346757 0.03487919 0.028773002 0.03734507 4.479005e-05 0.037928168 0.021571316
0.025408449 0.017987534 0.015137624 0.027865395 0.0009220412 0.030113779 0.0027846158 0.012386121
0.041024074 -8.569588e-06 0.008367956 0.0130209485 0.013324751 0.026360394 0.03738253 0.03980203
0.01882704 0.0019818977 0.00731223 0.031670824 0.032090455 0.003866919 0.028622827 0.04171101

action_parameters_passthrough_layer.weight f4 [160, 2]
00000000: 0000 0000 0000 0000 0000 0000 0000 0000
00000010: 0000 0000 0000 0000 0000 0000 0000 0000
00000020: 0000 0000 0000 0000 0000 0000 0000 0000
00000030: 0000 0000 0000 0000 0000 0000 0000 0000
00000040: 0000 0000 0000 0000 0000 0000 0000 0000
00000050: 0000 0000 0000 0000 0000 0000 0000 0000
00000060: 0000 0000 0000 0000 0000 0000 0000 0000
00000070: 0000 0000 0000 0000 0000 0000 0000 0000
00000080: 0000 0000 0000 0000 0000 0000 0000 0000
00000090: 0000 0000 0000 0000 0000 0000 0000 0000
000000a0: 0000 0000 0000 0000 0000 0000 0000 0000
000000b0: 0000 0000 0000 0000 0000 0000 0000 0000
000000c0: 0000 0000 0000 0000 0000 0000 0000 0000
000000d0: 0000 0000 0000 0000 0000 0000 0000 0000
000000e0: 0000 0000 0000 0000 0000 0000 0000 0000
000000f0: 0000 0000 0000 0000 0000 0000 0000 0000
00000100: 0000 0000 0000 0000 0000 0000 0000 0000
00000110: 0000 0000 0000 0000 0000 0000 0000 0000
00000120: 0000 0000 0000 0000 0000 0000 0000 0000
00000130: 0000 0000 0000 0000 0000 0000 0000 0000
00000140: 0000 0000 0000 0000 0000 0000 0000 0000
00000150: 0000 0000 0000 0000 0000 0000 0000 0000
00000160: 0000 0000 0000 0000 0000 0000 0000 0000
00000170: 0000 0000 0000 0000 0000 0000 0000 0000
00000180: 0000 0000 0000 0000 0000 0000 0000 0000
00000190: 0000 0000 0000 0000 0000 0000 0000 0000
000001a0: 0000 0000 0000 0000 0000 0000 0000 0000
000001b0: 0000 0000 0000 0000 0000 0000 0000 0000
000001c0: 0000 0000 0000 0000 0000 0000 0000 0000
000001d0: 0000 0000 0000 0000 0000 0000 0000 0000
000001e0: 0000 0000 0000 0000 0000 0000 0000 0000
000001f0: 0000 0000 0000 0000 0000 0000 0000 0000
00000200: 0000 0000 0000 0000 0000 0000 0000 0000
00000210: 0000 0000 0000 0000 0000 0000 0000 0000
00000220: 0000 0000 0000 0000 0000 0000 0000 0000
00000230: 0000 0000 0000 0000 0000 0000 0000 0000
00000240: 0000 0000 0000 0000 0000 0000 0000 0000
00000250: 0000 0000 0000 0000 0000 0000 0000 0000
00000260: 0000 0000 0000 0000 0000 0000 0000 0000
00000270: 0000 0000 0000 0000 0000 0000 0000 0000
00000280: 0000 0000 0000 0000 0000 0000 0000 0000
00000290: 0000 0000 0000 0000 0000 0000 0000 0000
000002a0: 0000 0000 0000 0000 0000 0000 0000 0000
000002b0: 0000 0000 0000 0000 0000 0000 0000 0000
000002c0: 0000 0000 0000 0000 0000 0000 0000 0000
000002d0: 0000 0000 0000 0000 0000 0000 0000 0000
000002e0: 0000 0000 0000 0000 0000 0000 0000 0000
000002f0: 0000 0000 0000 0000 0000 0000 0000 0000
00000300: 0000 0000 0000 0000 0000 0000 0000 0000
00000310: 0000 0000 0000 0000 0000 0000 0000 0000
00000320: 0000 0000 0000 0000 0000 0000 0000 0000
00000330: 0000 0000 0000 0000 0000 0000 0000 0000
00000340: 0000 0000 0000 0000 0000 0000 0000 0000
00000350: 0000 0000 0000 0000 0000 0000 0000 0000
00000360: 0000 0000 0000 0000 0000 0000 0000 0000
00000370: 0000 0000 0000 0000 0000 0000 0000 0000
00000380: 0000 0000 0000 0000 0000 0000 0000 0000
00000390: 0000 0000 0000 0000 0000 0000 0000 0000
000003a0: 0000 0000 0000 0000 0000 0000 0000 0000
000003b0: 0000 0000 0000 0000 0000 0000 0000 0000
000003c0: 0000 0000 0000 0000 0000 0000 0000 0000
000003d0: 0000 0000 0000 0000 0000 0000 0000 0000
000003e0: 0000 0000 0000 0000 0000 0000 0000 0000
000003f0: 0000 0000 0000 0000 0000 0000 0000 0000
0.0 0.0 0.0 0.0 0.0 0.0 0.0 0.0
0.0 0.0 0.0 0.0 0.0 0.0 0.0 0.0
0.0 0.0 0.0 0.0 0.0 0.0 0.0 0.0
0.0 0.0 0.0 0.0 0.0 0.0 0.0 0.0
0.0 0.0 0.0 0.0 0.0 0.0 0.0 0.0
0.0 0.0 0.0 0.0 0.0 0.0 0.0 0.0
0.0 0.0 0.0 0.0 0.0 0.0 0.0 0.0
0.0 0.0 0.0 0.0 0.0 0.0 0.0 0.0
0.0 0.0 0.0 0.0 0.0 0.0 0.0 0.0
0.0 0.0 0.0 0.0 0.0 0.0 0.0 0.0
0.0 0.0 0.0 0.0 0.0 0.0 0.0 0.0
0.0 0.0 0.0 0.0 0.0 0.0 0.0 0.0
0.0 0.0 0.0 0.0 0.0 0.0 0.0 0.0
0.0 0.0 0.0 0.0 0.0 0.0 0.0 0.0
0.0 0.0 0.0 0.0 0.0 0.0 0.0 0.0
0.0 0.0 0.0 0.0 0.0 0.0 0.0 0.0
0.0 0.0 0.0 0.0 0.0 0.0 0.0 0.0
0.0 0.0 0.0 0.0 0.0 0.0 0.0 0.0
0.0 0.0 0.0 0.0 0.0 0.0 0.0 0.0
0.0 0.0 0.0 0.0 0.0 0.0 0.0 0.0
0.0 0.0 0.0 0.0 0.0 0.0 0.0 0.0
0.0 0.0 0.0 0.0 0.0 0.0 0.0 0.0
0.0 0.0 0.0 0.0 0.0 0.0 0.0 0.0
0.0 0.0 0.0 0.0 0.0 0.0 0.0 0.0
0.0 0.0 0.0 0.0 0.0 0.0 0.0 0.0
0.0 0.0 0.0 0.0 0.0 0.0 0.0 0.0
0.0 0.0 0.0 0.0 0.0 0.0 0.0 0.0
0.0 0.0 0.0 0.0 0.0 0.0 0.0 0.0
0.0 0.0 0.0 0.0 0.0 0.0 0.0 0.0
0.0 0.0 0.0 0.0 0.0 0.0 0.0 0.0
0.0 0.0 0.0 0.0 0.0 0.0 0.0 0.0
0.0 0.0 0.0 0.0 0.0 0.0 0.0 0.0

action_parameters_passthrough_layer.bias f4 [160]
00000000: 0000 0000 0000 0000 0000 0000 0000 0000
00000010: 0000 0000 0000 0000 0000 0000 0000 0000
00000020: 0000 0000 0000 0000 0000 0000 0000 0000
00000030: 0000 0000 0000 0000 0000 0000 0000 0000
00000040: 0000 0000 0000 0000 0000 0000 0000 0000
00000050: 0000 0000 0000 0000 0000 0000 0000 0000
00000060: 0000 0000 0000 0000 0000 0000 0000 0000
00000070: 0000 0000 0000 0000 0000 0000 0000 0000
00000080: 0000 0000 0000 0000 0000 0000 0000 0000
00000090: 0000 0000 0000 0000 0000 0000 0000 0000
000000a0: 0000 0000 0000 0000 0000 0000 0000 0000
000000b0: 0000 0000 0000 0000 0000 0000 0000 0000
000000c0: 0000 0000 0000 0000 0000 0000 0000 0000
000000d0: 0000 0000 0000 0000 0000 0000 0000 0000
000000e0: 0000 0000 0000 0000 0000 0000 0000 0000
000000f0: 0000 0000 0000 0000 0000 0000 0000 0000
00000100: 0000 0000 0000 0000 0000 0000 0000 0000
00000110: 0000 0000 0000 0000 0000 0000 0000 0000
00000120: 0000 0000 0000 0000 0000 0000 0000 0000
00000130: 0000 0000 0000 0000 0000 0000 0000 0000
00000140: 0000 0000 0000 0000 0000 0000 0000 0000
00000150: 0000 0000 0000 0000 0000 0000 0000 0000
00000160: 0000 0000 0000 0000 0000 0000 0000 0000
00000170: 0000 0000 0000 0000 0000 0000 0000 0000
00000180: 0000 0000 0000 0000 0000 0000 0000 0000
00000190: 0000 0000 0000 0000 0000 0000 0000 0000
000001a0: 0000 0000 0000 0000 0000 0000 0000 0000
000001b0: 0000 0000 0000 0000 0000 0000 0000 0000
000001c0: 0000 0000 0000 0000 0000 0000 0000 0000
000001d0: 0000 0000 0000 0000 0000 0000 0000 0000
000001e0: 0000 0000 0000 0000 0000 0000 0000 0000
000001f0: 0000 0000 0000 0000 0000 0000 0000 0000
00000200: 0000 0000 0000 0000 0000 0000 0000 0000
00000210: 0000 0000 0000 0000 0000 0000 0000 0000
00000220: 0000 0000 0000 0000 0000 0000 0000 0000
00000230: 0000 0000 0000 0000 0000 0000 0000 0000
00000240: 0000 0000 0000 0000 0000 0000 0000 0000
00000250: 0000 0000 0000 0000 0000 0000 0000 0000
00000260: 0000 0000 0000 0000 0000 0000 0000 0000
00000270: 0000 0000 0000 0000 0000 0000 0000 0000
0.0 0.0 0.0 0.0 0.0 0.0 0.0 0.0
0.0 0.0 0.0 0.0 0.0 0.0 0.0 0.0
0.0 0.0 0.0 0.0 0.0 0.0 0.0 0.0
0.0 0.0 0.0 0.0 0.0 0.0 0.0 0.0
0.0 0.0 0.0 0.0 0.0 0.0 0.0 0.0
0.0 0.0 0.0 0.0 0.0 0.0 0.0 0.0
0.0 0.0 0.0 0.0 0.0 0.0 0.0 0.0
0.0 0.0 0.0 0.0 0.0 0.0 0.0 0.0
0.0 0.0 0.0 0.0 0.0 0.0 0.0 0.0
0.0 0.0 0.0 0.0 0.0 0.0 0.0 0.0
0.0 0.0 0.0 0.0 0.0 0.0 0.0 0.0
0.0 0.0 0.0 0.0 0.0 0.0 0.0 0.0
0.0 0.0 0.0 0.0 0.0 0.0 0.0 0.0
0.0 0.0 0.0 0.0 0.0 0.0 0.0 0.0
0.0 0.0 0.0 0.0 0.0 0.0 0.0 0.0
0.0 0.0 0.0 0.0 0.0 0.0 0.0 0.0
0.0 0.0 0.0 0.0 0.0 0.0 0.0 0.0
0.0 0.0 0.0 0.0 0.0 0.0 0.0 0.0
0.0 0.0 0.0 0.0 0.0 0.0 0.0 0.0
0.0 0.0 0.0 0.0 0.0 0.0 0.0 0.0
