Examples/trade/Results/actor.pt (torch, 59359 bytes, 4 tensors)

layers.0.weight f4 [128, 106]
0.034184005 -0.4010151 0.13461624 0.13034001 -0.20875369 0.83807546 -0.026695581 0.00070409133
0.02344274 -0.053687118 -0.12773976 -0.27273563 0.092218265 0.017407078 -0.057483815 0.08915543
-0.31273422 -0.043152455 0.054234494 -0.076772496 0.24116828 0.19936271 -0.24548812 0.4576185
0.03407875 0.014275657 -0.06606968 -0.117547296 -0.014987629 -0.106889375 -0.13833587 -0.053274386
-0.19885497 0.015855694 -0.03378268 -0.1988089 0.13037045 0.37833142 -0.4980005 -0.012421157
0.5504893 0.2787593 0.12105935 0.16594711 0.15000835 -0.39438203 0.065108046 0.36110228
0.09024104 0.055233084 0.11710826 0.3187642 0.24704437 0.042278573 -0.10118404 0.20800707
0.07479104 0.1308908 0.13478592 -0.07599379 0.012232555 0.093772165 -0.24616371 -0.02843454
0.15873589 0.16895002 0.37347457 0.116643436 0.1309723 0.033861563 -0.35549062 -0.095227405
0.027039438 0.029528767 0.07033858 -0.031583276 -0.016609648 -0.08339366 -0.06619954 0.061298277
0.069427595 0.15016681 -0.31792808 -0.2534201 -0.043967042 0.20187247 0.14755516 0.033277377
-0.029266248 0.16624647 -0.026875908 -0.17604952 -0.031999484 -0.0030173578 -0.0325357 0.29549342
0.40844694 0.1175466 0.07456355 0.1617402 -0.06701346 0.18918729 -0.011454386 0.68791217
0.06805586 0.35447732 -0.10269598 0.48537686 0.19785686 -0.18143965 -0.019687379 0.32732087
-0.04732493 0.1046768 -0.05481987 0.015388277 0.44497555 -0.26431125 -0.019652864 -0.02629986
0.091864035 -0.23584381 0.0049746465 0.0021264893 -0.20708832 -0.2250284 0.022493437 0.11132401
0.13823324 0.090348184 -0.10320235 -0.052541517 0.35052383 0.20593226 0.0814622 -0.012224745
0.093973495 0.038921736 0.20827986 0.101790614 -0.15701985 -0.038164668 -0.007388064 -0.08936045
0.12479633 0.0852511 -0.039671894 0.032442775 -0.0620699 0.2057298 -0.22462529 0.16903539
0.099375285 0.030394884 -0.0063267946 -0.040068783 -0.08252681 0.16534092 0.2117419 0.09998378
0.01171334 -0.20725887 0.0103815105 -0.16493374 -0.2332478 -0.040223923 0.075702325 -0.1806464
-0.04820494 0.10696207 0.03745361 0.012712247 0.5178317 0.079077914 -0.14045933 -0.19158688
-0.15286078 0.16343148 -0.06035416 -0.071113646 -0.1553235 -0.1863603 0.21690756 0.027609514
-0.08358281 0.12260068 -0.16443886 0.14811164 0.16092946 -0.009274249 0.22523507 0.12330435
-0.06985815 -0.1281775 -0.061942536 0.04813017 -0.07101125 -0.21963215 0.23712301 0.14380299
0.23678878 0.1970575 -0.15219584 -0.24504544 0.20814344 -0.0725646 0.022520792 0.0076299733
-0.21559785 -0.10643744 0.07106958 -0.08274074 0.025671566 0.2525762 -0.30967316 0.09254354
0.16982624 -0.10477976 -0.45613834 -0.12147587 -0.097073935 0.0674266 0.0691591 0.03297002
-0.0010697959 -0.122674726 0.3340969 0.15120879 -0.20728904 -0.29895484 -0.06379129 -0.11788937
0.03408569 -0.054551907 -0.027123468 -0.17051116 -0.14260536 0.06396022 -0.071704775 0.027958555
0.03818455 -0.26416764 0.10099058 -0.2692177 -0.047802374 -0.2781952 0.07053632 -0.16959724
0.21987502 0.07295803 0.033920944 -0.04530497 -0.015956981 -0.3543727 -0.3322261 0.13650863
00000000: 8704 0c3d da51 cdbe d7d8 093e da77 053e
00000010: 87c3 55be 1d8c 563f b1b0 dabc c592 383a
00000020: fd0a c03c 06e7 5bbd 36ce 02be 01a4 8bbe
00000030: eedc bc3d 4a99 8e3c 2674 6bbd 1f97 b63d
00000040: b31e a0be a1c0 30bd fd24 5e3d e63a 9dbd
00000050: d1f4 763e bd25 4c3e 3d61 7bbe f94c ea3e
00000060: 2996 0b3d 72e4 693c 8a4f 87bd a3bc f0bd
00000070: ac8e 75bc d1e8 dabd eba7 0dbe 3e36 5abd
00000080: a3a0 4bbe cde3 813c b55f 0abd 8f94 4bbe
00000090: d57f 053e a8b4 c13e ecf9 febe 1c82 4bbc
000000a0: deec 0c3f 8ab9 8e3e f7ed f73d 0aee 293e
000000b0: ca9b 193e 71ec c9be 5e57 853d 66e2 b83e
000000c0: 4bd0 b83d 163c 623d 75d6 ef3d 1035 a33e
000000d0: 33f9 7c3e 4c2c 2d3d 9439 cfbd ceff 543e
000000e0: 0b2c 993d 3d08 063e 5205 0a3e a2a2 9bbd
000000f0: 0e6b 483c 9f0b c03d 5712 7cbe 8def e8bc
00000100: a98b 223e 3c01 2d3e 0f38 bf3e c1e2 ee3d
00000110: 9a1d 063e 6cb2 0a3d de02 b6be 9606 c3bd
00000120: d081 dd3c 50e6 f13c ac0d 903d 775d 01bd
00000130: f510 88bc 4cca aabd a093 87bd e713 7b3d
00000140: 0e30 8e3d 54c5 193e 78c7 a2be 48c0 81be
00000150: c916 34bd a8b7 4e3e b318 173e dc4d 083d
00000160: c5bf efbc 843c 2a3e dd2a dcbc 5346 34be
00000170: e411 03bd ddbe 45bb 2744 05bd ea4a 973e
00000180: f51f d13e 46bc f03d c6b4 983d 399f 253e
00000190: 5a3e 89bd 50ba 413e 2dab 3bbc 031b 303f
000001a0: df60 8b3d 0d7e b53e 4552 d2bd 5183 f83e
000001b0: fd9a 4a3e 51cb 39be 6d47 a1bc 9a96 a73e
000001c0: c9d7 41bd ca60 d63d cd8a 60bd 1d1f 7c3c
000001d0: d6d3 e33e ce53 87be 0bff a0bc ce72 d7bc
000001e0: 3623 bc3d 0a81 71be 5c02 a33b 925c 0b3b
000001f0: f60e 54be d86d 66be 2844 b83c d8fd e33d
00000200: 048d 0d3e 7808 b93d c15b d3bd c635 57bd
00000210: dc77 b33e e8df 523e a7d5 a63d 4c4a 48bc
00000220: 2d75 c03d 666c 1f3d 5147 553e 9977 d03d
00000230: d0c9 20be 8e52 1cbd 9317 f2bb 9d02 b7bd
00000240: 3895 ff3d 2198 ae3d ff7e 22bd b7e2 043d
00000250: 023d 7ebd d5aa 523e 2c04 66be 9d17 2d3e
00000260: 4585 cb3d b1fe f83c 0051 cfbb 2a1f 24bd
00000270: d103 a9bd 214f 293e ded2 583e 4cc4 cc3d
00000280: 4fe9 3f3c ab3b 54be 3617 2a3c 64e4 28be
00000290: 83d8 6ebe d7c1 24bd d209 9b3d 5ffb 38be
000002a0: 8b72 45bd ee0e db3d f568 193d 0747 503c
000002b0: 9e90 043f 9af3 a13d 92d4 0fbe 5a2f 44be
000002c0: 8987 1cbe 955a 273e ec35 77bd 08a4 91bd
000002d0: 200d 1fbe 3cd5 3ebe 041d 5e3e 592d e23c
000002e0: 772d abbd 1116 fb3d a962 28be 94aa 173e
000002f0: b1ca 243e 05f3 17bc 06a4 663e fe86 fc3d
00000300: ca11 8fbd f640 03be 75b7 7dbd 2424 453d
00000310: 596e 91bd 40e7 60be 60d0 723e 1741 133e
00000320: c278 723e 71c9 493e 3ad9 1bbe 31ed 7abe
00000330: 8e23 553e c09c 94bd 867d b83c db04 fa3b
00000340: afc5 5cbe dffb d9bd ee8c 913d fa73 a9bd
00000350: 2d4d d23c ab51 813e 7b8d 9ebe 7887 bd3d
00000360: eee6 2d3e c596 d6bd f78a e9be 57c8 f8bd
00000370: b3ce c6bd f516 8a3d 49a3 8d3d 920b 073d
00000380: 6538 8cba e33c fbbd c00e ab3e 7ad6 1a3e
00000390: 9443 54be 9c10 99be 02a5 82bd fb6f f1bd
000003a0: 709d 0b3d d271 5fbd 0932 debc 7a9a 2ebe
000003b0: 2407 12be 93fd 823d f4d9 92bd 5709 e53c
000003c0: 6767 1c3d fb40 87be 26d4 ce3d e7d6 89be
000003d0: 6ccc 43bd 9a6f 8ebe 5975 903d e6aa 2dbe
000003e0: eb26 613e 056b 953d b0f0 0a3d b491 39bd
000003f0: 37b8 82bc 5770 b5be 8a19 aabe ebc8 0b3e

layers.0.bias f4 [128]
0.04819974 -0.18379474 -0.17316093 0.8513625 -0.07431879 -0.39187118 0.0 0.11383761
0.59592664 -0.02744699 0.26345497 -0.0887332 -0.03201072 -0.06456593 0.004048596 0.055655703
0.77716637 0.095080055 0.6888138 0.63846225 0.03671146 -0.29910418 -0.13068886 -0.004634888
0.02790859 0.0 -0.027031241 0.13138838 -0.33591 0.015395029 0.07601715 -0.042595424
0.5181281 -0.59246546 -0.0076734074 -0.62696046 -0.054768343 -0.00023695294 0.9820091 0.0
-0.2094836 0.38639566 -0.045100074 0.05043992 -0.6122965 -0.55549294 0.10037077 -0.067072526
-0.17864299 -0.14980185 -0.011176867 -0.058049414 -0.051955476 0.12090496 -0.10552325 0.25367707
-0.024251504 -0.33174714 0.73310745 -0.062198073 0.561437 -0.059083354 1.2098261 0.24305302
0.0 -0.2772645 0.0 0.29171163 0.65535665 -0.02786294 -0.009306203 0.57062685
0.64856976 0.2522154 0.3104762 0.21730612 -0.8341225 -0.8268237 -0.029882073 -0.12967387
0.7494227 0.96267015 -0.1306081 -0.53042895 -0.48187333 -0.004989686 -0.21155553 0.42536947
0.36825386 0.0 0.19993615 1.3124545 -0.044284042 0.01474141 0.5438949 0.5553263
0.24229944 -0.03560357 0.24799258 0.011146042 0.45040172 0.16900325 0.093089476 -0.31107143
1.1070479 -0.008658256 -0.031127455 0.52521867 0.25265104 0.7928547 -0.08845244 -0.023000903
-0.5883948 0.03503611 0.10884291 -0.03295641 0.66304743 -0.2907221 0.058081713 -0.7461444
-0.18042663 0.81493896 0.0 -0.17106849 0.20676532 0.66514015 1.0521697 0.13450745
00000000: 176d 453d b034 3cbe 1951 31be e5f2 593f
00000010: 7334 98bd 57a3 c8be 0000 0000 b123 e93d
00000020: a68e 183f 83d8 e0bc 92e3 863e c1b9 b5bd
00000030: ac1d 03bd 243b 84bd 16aa 843b 3cf7 633d
00000040: 60f4 463f 55b9 c23d 1a56 303f 4372 233f
00000050: c25e 163d 2f24 99be 4dd3 05be 42e0 97bb
00000060: 8ea0 e43c 0000 0000 9f70 ddbc ad8a 063e
00000070: 65fc abbe 6f3b 7c3c e1ae 9b3d 8a78 2ebd
00000080: 0ba4 043f d1ab 17bf 3571 fbbb 7b80 20bf
00000090: c554 60bd 9276 78b9 f364 7b3f 0000 0000
000000a0: de82 56be a7d5 c53e dbba 38bd 179a 4e3d
000000b0: 77bf 1cbf c934 0ebf 318f cd3d 525d 89bd
000000c0: 30ee 36be a865 19be 2e1f 37bc 39c5 6dbd
000000d0: 44cf 54bd 059d f73d 931c d8bd f6e1 813e
000000e0: 17ab c6bc c3da a9be eeac 3b3f 68c3 7ebd
000000f0: 56ba 0f3f 6301 72bd 95db 9a3f e4e2 783e
00000100: 0000 0000 9df5 8dbe 0000 0000 3a5b 953e
00000110: 74c5 273f d240 e4bc 0b79 18bc 9a14 123f
00000120: ab08 263f 6022 813e bdf6 9e3e 7f85 5e3e
00000130: 0d89 55bf b8aa 53bf 40cb f4bc 3ac9 04be
00000140: 2bda 3f3f 8d71 763f 21be 05be 31ca 07bf
00000150: 1ab8 f6be 8580 a3bb 03a2 58be 07ca d93e
00000160: c58b bc3e 0000 0000 10bc 4c3e 82fe a73f
00000170: 2f63 35bd f485 713c b23c 0b3f dd29 0e3f
00000180: 581d 783e 0dd5 11bd c4f1 7d3e e39d 363c
00000190: 0e9b e63e 300f 2d3e b2a5 be3d c144 9fbe
000001a0: bfb3 8d3f 5cdb 0dbc 01ff febc bb74 063f
000001b0: 7a5b 813e 87f8 4a3f 8e26 b5bd 646c bcbc
000001c0: 0ba1 16bf 0682 0f3d 08e9 de3d 4dfd 06bd
000001d0: 7abd 293f 87d9 94be 17e7 6d3d 5203 3fbf
000001e0: c2c1 38be d79f 503f 0000 0000 942c 2fbe
000001f0: 4aba 533e a046 2a3f 7fad 863f 52bc 093e

layers.1.weight f4 [6, 128]
0.05036335 -0.22763567 -0.03692186 0.018071817 0.042615477 -0.030761618 -0.014385931 0.1152519
-0.037633464 0.081731126 -0.46712816 -0.0031799402 -0.062051836 0.0064121685 -0.08111482 0.22235197
0.006708912 0.16308421 0.018530438 0.15742677 0.03478499 -0.13710387 0.00040149613 0.046995953
0.15192442 0.0025413707 -0.012964739 0.19498172 -0.027761199 -0.027821155 -0.0017972133 0.010640053
0.29229024 -0.31452125 0.01841761 -0.263013 0.035755593 0.0070577287 -0.00028373985 0.056357827
0.011637413 0.18595523 0.020594383 0.15369265 -0.04054627 -0.046217114 -0.035504576 0.0037035595
0.055567406 -0.115866356 -0.08750026 0.004453647 0.086588345 -0.15268433 0.012440424 0.16599116
-0.038130525 -0.01361604 0.021223437 0.0009719523 0.0068220305 -0.16667914 0.17514096 0.060060523
0.0665463 -0.0047841496 0.02441843 -0.03528834 0.10315116 0.06775516 0.12830865 0.06197952
0.023401638 0.038538173 -0.24512154 0.052379984 -0.17381848 -0.057373367 -0.02854548 -0.024787074
0.04046558 0.071486704 -0.10801807 -0.010641081 -0.042894796 0.018887648 -0.34212783 -0.006260642
0.073900916 0.008966068 0.04357574 0.1582602 0.012351391 0.059095502 0.06028051 0.05223284
0.038226005 -0.027947344 -0.46319175 -0.04299367 0.031094925 0.006282088 -0.021144187 0.015669022
0.1842968 0.055346873 -0.04081012 0.029036244 0.013617145 0.06957007 0.03826094 0.022213724
-0.07694469 0.20221531 -0.18131901 0.031537823 0.17135352 -0.015672496 0.027463695 -0.2003886
-0.0079357475 0.016582184 -0.053823505 0.018901834 0.041887514 0.038556404 0.15891558 -0.07358522
-0.040525194 -0.2596927 -0.05795934 0.24648453 0.04522831 -0.07467832 0.036904424 -0.06842313
0.15509692 -0.05878269 -0.1932706 -0.022400375 -0.04363851 -0.082103394 -0.30663344 -0.04370313
0.04017882 -0.07802834 0.058399007 0.22967108 -0.17495805 -0.1561352 -0.056961913 -0.07479922
0.07790922 -0.008202219 0.0472832 -0.2678378 -0.03729455 -0.03617836 0.05267861 0.019400084
0.18248121 -0.2930034 -7.403662e-05 -0.2799401 0.049424022 0.05661538 0.6038142 0.0025184427
-0.024708033 0.25508553 0.059290178 -0.009044522 -0.07819782 0.015350849 0.032290507 0.018996846
-0.17559627 -0.036035012 -0.094934896 -0.06643088 -0.3705384 0.20004517 0.028140055 0.24231046
0.026467584 -0.046660755 0.04062583 0.05691529 0.0018563772 -0.12563959 0.3127149 0.022145199
-0.011140645 -0.010550752 0.009572898 0.07231986 0.18770146 -0.004289588 0.022737011 0.033546492
0.0051607196 -0.014257497 0.08372045 0.011452117 -0.2129372 -0.055690356 0.0070391204 -0.01077154
0.16175222 0.24715555 -0.19256142 0.0012880078 0.0013362385 -0.14296345 -0.04779192 0.061787643
0.31561738 -0.02205238 0.2589609 0.21804328 -0.048919775 0.27805495 0.04715607 0.040605314
-0.038265187 -0.04409445 -0.557895 0.0015093829 -0.012193445 0.027254567 -0.07155979 -0.0045489105
0.32421702 -0.08163789 -0.04923208 0.08832952 -0.0066321134 0.110181116 -0.30708736 -0.032956958
-0.10701381 -0.05291475 -0.21895155 0.052493848 0.34233463 -0.04170468 -0.33671838 -0.28444016
-0.043676995 0.05368452 -0.029014522 -0.02266436 0.018441835 0.053114284 0.18485464 0.27462423
00000000: cd49 4e3d 5319 69be 603b 17bd 590b 943c
00000010: 918d 2e3d caff fbbc f8b2 6bbc 3009 ec3d
00000020: 8c25 1abd a662 a73d 6c2b efbe 8b66 50bb
00000030: 112a 7ebd 2b1d d23b 871f a6bd 3cb0 633e
00000040: 6fd6 db3b 8cff 263e 25cd 973c 7c34 213e
00000050: b57a 0e3d f564 0cbe e67f d239 d47e 403d
00000060: 1392 1b3e 208d 263b 0f6a 54bc 4aa9 473e
00000070: 746b e3bc 31e9 e3bc 7990 ebba 9e53 2e3c
00000080: 11a7 953e ee08 a1be 87e0 963c a4a9 86be
00000090: 7574 123d 8544 e73b ebc2 94b9 77d7 663d
000000a0: d9aa 3e3c 0c6b 3e3e 8db5 a83c 9b61 1d3e
000000b0: d813 26bd 284e 3dbd 3f6d 11bd 6bb7 723b
000000c0: a69a 633d 574b edbd 5633 b3bd e6ef 913b
000000d0: 3b55 b13d 4859 1cbe ecd2 4b3c 96f9 293e
000000e0: c12e 1cbd d015 5fbc c6dc ad3c 9dca 7e3a
000000f0: 578b df3b f0ad 2abe 2758 333e 0602 763d
00000100: 6d49 883d 5bc4 9cbb 2909 c83c 828a 10bd
00000110: ea40 d33d 38c3 8a3d 5863 033e 3dde 7d3d
00000120: cbb4 bf3c 34da 1d3d 2401 7bbe 658c 563d
00000130: 79fd 31be 5600 6bbd 36d8 e9bc 430e cbbc
00000140: 3cbf 253d 9f67 923d 9438 ddbd ee57 2ebc
00000150: 74b2 2fbd 45ba 9a3c 612b afbe 1226 cdbb
00000160: 5d59 973d 6ae6 123c 7a7c 323d f60e 223e
00000170: 7d5d 4a3c 200e 723d b2e8 763d 1af2 553d
00000180: df92 1c3d d4f1 e4bc 7827 edbe 211a 30bd
00000190: c9ba fe3c f9d9 cd3b 9336 adbc 525c 803c
000001a0: 4db8 3c3e 67b3 623d 8328 27bd 6bdd ed3c
000001b0: 721a 5f3c c17a 8e3d 81b7 1c3d 8ef9 b53c
000001c0: 2d95 9dbd 8811 4f3e b1ab 39be ce2d 013d
000001d0: 4c77 2f3e 9b63 80bc 8bfb e03c ab32 4dbe
000001e0: f004 02bc 5cd7 873c 0976 5cbd 05d8 9a3c
000001f0: 3e92 2b3d 52ed 1d3d c4ba 223e d9b3 96bd
00000200: bffd 25bd 71f6 84be c666 6dbd 7166 7c3e
00000210: 5241 393d f2f0 98bd 1829 173d 6d21 8cbd
00000220: bad1 1e3e 1ec6 70bd bae8 45be fe80 b7bc
00000230: 4bbe 32bd d325 a8bd 0fff 9cbe 0e02 33bd
00000240: 8c92 243d 53cd 9fbd cc33 6f3d e52e 6b3e
00000250: 3428 33be e8e1 1fbe e550 69bd 5530 99bd
00000260: de8e 9f3d 9a62 06bc 07ac 413d 0922 89be
00000270: 2cc2 18bd c32f 14bd 87c5 573d edec 9e3c
00000280: 5bdc 3a3e 8b04 96be 1c44 9bb8 4f54 8fbe
00000290: d870 4a3d 87e5 673d 9193 1a3f 750c 253b
000002a0: 8068 cabc 929a 823e 42da 723d 7a2f 14bc
000002b0: 2e26 a0bd 2182 7b3c 0d43 043d 469f 9b3c
000002c0: 82cf 33be 7399 13bd 3a6d c2bd ea0c 88bd
000002d0: 36b7 bdbe a4d8 4c3e f985 e63c 3c20 783e
000002e0: 8cd2 d83c 591f 3fbd 4567 263d 0220 693d
000002f0: af51 f33a aaa7 00be 2b1c a03e d969 b53c
00000300: 4087 36bc 10dd 2cbc a5d7 1c3c 6f1c 943d
00000310: d034 403e ac8f 8cbb f842 ba3c 0c68 093d
00000320: 411b a93b 4798 69bc a175 ab3d a9a1 3b3c
00000330: 360c 5abe 921b 64bd 6ca8 e63b 1d7b 30bc
00000340: 60a2 253e 5816 7d3e d22e 45be 5fd2 a83a
00000350: b924 af3a 0365 12be 76c1 43bd 0a15 7d3d
00000360: 9a98 a13e 31a7 b4bc 8696 843e bd46 5f3e
00000370: 1a60 48bd 385d 8e3e b926 413d c251 263d
00000380: f5bb 1cbd 629c 34bd 35d2 0ebf 7cd6 c53a
00000390: 04c7 47bc f844 df3c f08d 92bd 070f 95bb
000003a0: c6ff a53e c431 a7bd 94a7 49bd 1be6 b43d
000003b0: 3352 d9bb a3a6 e13d 8e3a 9dbe e0fd 06bd
000003c0: 0e2a dbbd 23bd 58bd d634 60be ca03 573d
000003d0: 7c46 af3e 87d2 2abd 5a66 acbe 24a2 91be
000003e0: a6e6 32bd 4de4 5b3d ddaf edbc 9caa b9bc
000003f0: 5513 973c 5d8e 593d 894a 3d3e 8c9b 8c3e

layers.1.bias f4 [6]
0.38005093 0.44618553 0.45817718 0.3819004 0.4011752 0.0
00000000: 0996 c23e 6e72 e43e 3396 ea3e 7388 c33e
00000010: d666 cd3e 0000 0000
