Examples/trade/Results/actor_param.pt (torch, 58519 bytes, 6 tensors)

layers.0.weight f4 [128, 2]
0	0x3e333db4	0.17504007
1	0xbfbba73c	-1.4660411
2	0x3e60b878	0.21945369
3	0x3f9acaeb	1.2093176
4	0x3de2e199	0.110781856
5	0x4025be62	2.589745
6	0x3e801552	0.25016266
7	0xbf74d8d7	-0.9564337
8	0x3e682193	0.22669058
9	0x3f66c70d	0.9014748
10	0xbf2117dd	-0.6292704
11	0xbea88433	-0.3291336
12	0xbfa2aee2	-1.270962
13	0x3f54a25b	0.83060235
14	0x3df4cf00	0.119535446
15	0x3ec55195	0.38538805
16	0x3f089454	0.5335133
17	0x3f967d36	1.1756961
18	0xbf5730d0	-0.84058857
19	0xbfccd013	-1.6000999
20	0x3d9edee9	0.077573605
21	0xbceaedb2	-0.028677795
22	0xbc5a3859	-0.013319098
23	0x3f0246b9	0.50889164
24	0x3fad8a19	1.3557769
25	0x3fa9535c	1.3228564
26	0xbec138df	-0.37738702
27	0x3fc6eb2a	1.5540516
28	0x3f220d60	0.6330166
29	0xc00f0844	-2.2348795
30	0xbf67a7e4	-0.90490556
31	0xbfa273bf	-1.2691573
32	0x3f908241	1.128975
33	0x3e5d8d0a	0.21635833
34	0xc036002a	-2.84376
35	0xbfe6dc74	-1.8036027
36	0xbf5b9a72	-0.8578254
37	0xbf90e3ab	-1.1319479
38	0xbf8ad0b3	-1.084494
39	0x3e6ee0e2	0.23327973
40	0xbf977f00	-1.1835632
41	0x3fddc84c	1.7326751
42	0xbb760ff7	-0.0037546137
43	0x3f8977d4	1.0739694
44	0x3e9d5b92	0.30733925
45	0xbea3fc3c	-0.32028377
46	0x3f4a8a4d	0.7911728
47	0xbf2fa129	-0.68605286
48	0xbfce14ed	-1.6100136
49	0xc01c3b75	-2.441129
50	0x3e563404	0.2091828
51	0xbe2b9d88	-0.16759312
52	0xbfa80738	-1.3127203
53	0xbeb44721	-0.35210517
54	0xbf10304a	-0.56323683
55	0x3f4fd7f2	0.8118888
56	0xbfd0b544	-1.6305318
57	0xbe3f6827	-0.18692075
58	0x3ec3f325	0.38271442
59	0xbff9ef4d	-1.9526154
60	0x3f697402	0.9119264
61	0xbfb43439	-1.4078437
62	0xbf5565ef	-0.83358663
63	0x3e2be53e	0.16786668
64	0x3d4c0534	0.04980965
65	0x3e00a29c	0.1256203
66	0xbfa3548a	-1.2760174
67	0x3f5cdf64	0.8627837
68	0x3ec56cc3	0.3855954
69	0xbecbfab7	-0.39839718
70	0xbf8fd23c	-1.1236033
71	0xbf516547	-0.8179516
72	0xbd9399af	-0.07207047
73	0x4000ba0b	2.0113552
74	0x3f0f5cee	0.56001174
75	0xbedd28d2	-0.43195206
76	0xbaf7d57c	-0.0018908228
77	0x3f6f0f39	0.933826
78	0xbed79a0a	-0.4210971
79	0xbeaeac97	-0.3411605
80	0xbf6e9797	-0.9320006
81	0xbf330b39	-0.69939
82	0x3f417919	0.75575405
83	0xbe8ac675	-0.27104536
84	0xbd47b815	-0.04875954
85	0x3e19bd77	0.15013681
86	0xbf6ced2a	-0.92549384
87	0x40060e65	2.0946286
88	0xbf493c06	-0.78607213
89	0x3f6ed3a1	0.9329167
90	0xbed6e65c	-0.41972625
91	0xbf964aee	-1.1741617
92	0xbf726774	-0.94689107
93	0x3ed1a29c	0.40944374
94	0x3eb69daf	0.35667178
95	0xbe95fbe4	-0.2929374
96	0xbd3797ed	-0.044822622
97	0x3ecffd99	0.40623167
98	0xbf61d6f5	-0.88218623
99	0x3e70484b	0.23465078
100	0xbf9b319e	-1.2124517
101	0x3f897f70	1.0742016
102	0xbdb5d0d4	-0.088777214
103	0xbf8ceb28	-1.1009264
104	0x3fa4f446	1.2887046
105	0x3eae0ce0	0.33994198
106	0xbfaa96f3	-1.3327316
107	0xbf9e6f06	-1.2377632
108	0x3f9dd2e6	1.2329986
109	0x3e1315a9	0.14363731
110	0x3f647fb9	0.8925739
111	0x3ec940bc	0.393072
112	0xbe9f7cef	-0.31150004
113	0xbf38d1d6	-0.72195184
114	0xbf8dd284	-1.1079869
115	0x3fd4bc7d	1.6620022
116	0xbdcfcdc8	-0.101466715
117	0xbeb1a381	-0.34695056
118	0xbfd310af	-1.6489466
119	0x3fb852ad	1.4400231
120	0xbb61f320	-0.003447719
121	0x3e4e3f80	0.20141411
122	0xbf903dc9	-1.1268855
123	0xbdaae923	-0.083452486
124	0xbe48339c	-0.19550937
125	0xbe1aa828	-0.15103209
126	0xbf2a0e0a	-0.6642767
127	0x3e5465ad	0.20741911
128	0x3f3ce221	0.73782545
129	0x3dd84ae1	0.10561157
130	0x3eb5332a	0.35390598
131	0xbc63aeb1	-0.01389663
132	0xbd1a6662	-0.037695296
133	0xbd52cf9e	-0.05146753
134	0xbee86649	-0.45390537
135	0x3d4aa688	0.049475223
136	0xbfefbc68	-1.8729372
137	0xbedda23f	-0.43287846
138	0xbfbdabee	-1.4818094
139	0x3ed7fb54	0.42183936
140	0xbd499749	-0.049216542
141	0x3e1280ea	0.1430699
142	0xbe619c73	-0.22032337
143	0x3fdff81c	1.7497592
144	0x3fc9ec88	1.5775309
145	0xbfb27421	-1.394169
146	0x3f9ec8c8	1.2405024
147	0x40001856	2.0014853
148	0x3e605120	0.21905947
149	0xbe09466a	-0.13405767
150	0x3f8c6721	1.0968972
151	0xbf4fb265	-0.81131583
152	0x3ee1cb40	0.4410038
153	0xbfe4024f	-1.7813205
154	0x3fc7f553	1.5621742
155	0x3f0adfbe	0.54247653
156	0xbf8f3c21	-1.1190225
157	0xbed78900	-0.4209671
158	0x3faf1b72	1.3680251
159	0xc01ee5b0	-2.482769
160	0x3f237b06	0.63859594
161	0xc02e47b2	-2.723126
162	0xc01845d3	-2.3792617
163	0xbf33b744	-0.70201516
164	0x3fb616c4	1.4225698
165	0xbf5842a4	-0.84476686
166	0xbf79e22c	-0.97610736
167	0x3fb66fb0	1.4252834
168	0xbea567b6	-0.32305688
169	0xbfbe7e42	-1.4882281
170	0xbfbdf60e	-1.4840715
171	0x3f9fe75d	1.2492481
172	0xbe26c5ca	-0.16286388
173	0xbeb39b10	-0.3507924
174	0x3df4a780	0.119460106
175	0x3eb949ea	0.36189204
176	0xbee95da8	-0.45579267
177	0xbf40d071	-0.75318056
178	0xbcb7aee9	-0.02242227
179	0x3f8f9a66	1.1218994
180	0x3e3c678d	0.18398876
181	0xc00f7bb4	-2.2419252
182	0xbb78ba9c	-0.0037953025
183	0x3f54c7e5	0.83117515
184	0xbf96efbb	-1.179191
185	0x3fe04324	1.752049
186	0x3f0454b9	0.51691777
187	0x3f831f14	1.0243859
188	0x3f483d3f	0.78218454
189	0xbf354d2c	-0.7082088
190	0xbecf031d	-0.40432063
191	0xbf216a81	-0.6305314
192	0x3eab32ba	0.3343714
193	0xbee818e2	-0.45331484
194	0x3e91bdb2	0.2846504
195	0xbd23ff9a	-0.040038683
196	0xbe0840a5	-0.1330591
197	0x3fb1ca82	1.3889925
198	0x3e813964	0.25239098
199	0xbea1b43d	-0.31582823
200	0x3f982742	1.188698
201	0x3ef138be	0.47113603
202	0xbfc7a91e	-1.5598485
203	0xbf50bc65	-0.8153747
204	0x3e5a48df	0.2131686
205	0xbe83a07c	-0.25708377
206	0x3ea7fa77	0.32808277
207	0xbed356fc	-0.412773
208	0x3efa229e	0.48854536
209	0x3f78b130	0.97145367
210	0x3f202e32	0.6257049
211	0x3f8ce648	1.1007776
212	0xbf7e4af2	-0.9933311
213	0x3fcfcb6e	1.6233957
214	0x3fadc353	1.3575233
215	0xbfb950c7	-1.4477776
216	0xbdc1c22e	-0.09460865
217	0x3f5e7b8c	0.8690727
218	0x3dcd143c	0.10013625
219	0xbf62e633	-0.88632506
220	0x3eab4fdf	0.33459374
221	0x3ef58e59	0.47960165
222	0xbf885459	-1.0650741
223	0xc00d42dd	-2.207206
224	0xbe335b19	-0.1751522
225	0xbfae0d88	-1.359788
226	0x3cb58fbf	0.02216327
227	0x3f0ec302	0.5576631
228	0xbf968ac8	-1.1761103
229	0x3fb60963	1.4221615
230	0xbd0894b3	-0.033344936
231	0x3f90765d	1.1286122
232	0x3fd70d1d	1.6800877
233	0xbfdc32ac	-1.7202964
234	0xbf916ad8	-1.1360731
235	0xbf905145	-1.1274801
236	0x3f41768a	0.755715
237	0xbf745598	-0.95443106
238	0xbca7c5f4	-0.020480134
239	0xbda51e71	-0.08062447
240	0xbf5af58f	-0.8553094
241	0xbf554849	-0.83313423
242	0x3f527f84	0.82225823
243	0xbec74361	-0.38918594
244	0x3feb285d	1.8371693
245	0xbe18583f	-0.14877413
246	0x3f077de4	0.5292647
247	0xbee4dafb	-0.4469832
248	0x3edab6af	0.42717502
249	0x3e4e0435	0.20118792
250	0x3edf1af0	0.4357524
251	0xbf0031d4	-0.5007603
252	0xbe2fed52	-0.17180374
253	0x3fec078d	1.8439804
254	0xbeab08fa	-0.33405286
255	0x3f1fd43e	0.6243323

layers.0.bias f4 [128]
0	0xbef3b012	-0.47595268
1	0x3e8329de	0.2561788
2	0xbe413a32	-0.18869856
3	0xbf3dc996	-0.7413572
4	0x3f18059c	0.5938356
5	0x00000000	0.0
6	0xbda6c34d	-0.081427194
7	0x3f37e23d	0.7182959
8	0x3e1e964a	0.15487018
9	0x00000000	0.0
10	0xbf607778	-0.87682295
11	0x3f130102	0.5742341
12	0xbd23910b	-0.039933246
13	0x3e459b14	0.19297439
14	0xbe99760b	-0.29972872
15	0x00000000	0.0
16	0x3f21106d	0.6291569
17	0x00000000	0.0
18	0x00000000	0.0
19	0xbde8ddeb	-0.113704525
20	0x3eb07745	0.34465995
21	0x3f2d42e0	0.6768017
22	0xbf443576	-0.76644075
23	0xbf3f24ef	-0.7466573
24	0x00000000	0.0
25	0xbf4b3fb3	-0.7939407
26	0x00000000	0.0
27	0x3ea2ad3e	0.31772798
28	0x00000000	0.0
29	0xbec033a4	-0.375394
30	0xbf2bd0b5	-0.67115337
31	0xbda7f7c2	-0.08201553
32	0xbf692657	-0.91074127
33	0xbda2929e	-0.07938121
34	0x3f3e9cf0	0.7445822
35	0x00000000	0.0
36	0x3ed12ba4	0.40853608
37	0xbf40d533	-0.75325316
38	0x3eb3a4d0	0.3508668
39	0x00000000	0.0
40	0x00000000	0.0
41	0x3f31893a	0.69350016
42	0x3f1bce67	0.6086182
43	0x3e794785	0.24343689
44	0xbbf28bb2	-0.007401907
45	0x00000000	0.0
46	0xbde89e62	-0.11358334
47	0xbf408493	-0.7520229
48	0x3f10372f	0.56334203
49	0xbde9b226	-0.11410932
50	0xbd576a52	-0.05259163
51	0x00000000	0.0
52	0x3eff78e2	0.49896914
53	0x00000000	0.0
54	0x3f248fbb	0.64281815
55	0x3f1ec0d7	0.62013
56	0x00000000	0.0
57	0x3eac291a	0.33625108
58	0x00000000	0.0
59	0xbd53c0ec	-0.051697657
60	0x3f24800d	0.6425789
61	0x00000000	0.0
62	0x00000000	0.0
63	0xbdee6e03	-0.11642077
64	0x3f33e94f	0.70277876
65	0x3f3a9f89	0.7289968
66	0x3f1419ec	0.57852054
67	0x3e891f59	0.2678173
68	0x00000000	0.0
69	0xbdf51a7c	-0.11967942
70	0x3f1accb0	0.6046858
71	0x3ec122af	0.37721774
72	0x3ed24a8f	0.4107251
73	0xbdf4b75f	-0.11949038
74	0x3f400787	0.75011486
75	0x3f2dd970	0.6790991
76	0xbf0009b7	-0.50014824
77	0x3e5cc7f4	0.21560651
78	0x00000000	0.0
79	0x3dc82dcd	0.09774361
80	0xbe11e7c4	-0.14248568
81	0x00000000	0.0
82	0x3f2a3ff4	0.66503835
83	0x3e92fe2b	0.2870954
84	0x00000000	0.0
85	0xbd5afd5e	-0.053464286
86	0x00000000	0.0
87	0x3f387937	0.7205996
88	0x00000000	0.0
89	0x3eda094c	0.42585218
90	0x3f1ab516	0.60432565
91	0x3f2f1e2e	0.68405426
92	0x3e952994	0.29133284
93	0x3e88bd9d	0.26707163
94	0xbf3f58e2	-0.74745
95	0x00000000	0.0
96	0x3f3b537f	0.7317428
97	0x3f3c5094	0.7356045
98	0x3ed6d352	0.419581
99	0xbf45f27e	-0.7732314
100	0x3ed2da9d	0.41182414
101	0x00000000	0.0
102	0xbf49aabf	-0.7877616
103	0x3f3f93d4	0.7483494
104	0x3ea81a40	0.32832527
105	0x3e1a7662	0.15084222
106	0x3ea83fbe	0.3286113
107	0xbf346063	-0.70459574
108	0x3ee772ba	0.45204717
109	0xbf48e452	-0.7847339
110	0x3f33a2f7	0.7017054
111	0x00000000	0.0
112	0x00000000	0.0
113	0xbecbd714	-0.3981253
114	0xbc6c04d4	-0.014405448
115	0x3ef179f1	0.47163346
116	0xbf2d87e5	-0.67785484
117	0x00000000	0.0
118	0xbf3deb35	-0.7418702
119	0x3f2415ec	0.6409595
120	0x00000000	0.0
121	0x3f37525d	0.7161005
122	0x3f07a687	0.52988476
123	0xbf436dc5	-0.7633937
124	0x3f363abe	0.71183383
125	0xbf39d414	-0.7258923
126	0x3ebb84c1	0.3662472
127	0x3ecdd910	0.40204668

action_parameters_output_layer.weight f4 [104, 128]
0	0xbbf84bb8	-0.0075773858
1	0x3af86c54	0.0018953183
2	0x3b740490	0.0037234165
3	0xbb483deb	-0.0030554484
4	0x3ad6184e	0.0016334148
5	0xb85ceb17	-5.2671032e-05
6	0x3bec3b61	0.007209227
7	0x3af65b0a	0.0018795442
8	0x3a8b11da	0.0010610179
9	0x39227cae	0.00015495971
10	0xbc8ab604	-0.016932495
11	0x3c6e963b	0.014562185
12	0x3a1a0b7c	0.0005876345
13	0xbbd28668	-0.006424714
14	0xba5d7d4e	-0.0008449153
15	0xb9331ee4	-0.00017082278
16	0x395d8957	0.00021127365
17	0xb83b9cb6	-4.4730223e-05
18	0xb8c37cf6	-9.3216004e-05
19	0x3c6276f3	0.013822305
20	0x39c35485	0.0003725627
21	0x3b5df887	0.0033870058
22	0xbac6352d	-0.0015122049
23	0xb97f6f73	-0.00024360213
24	0x38263599	3.96274e-05
25	0xbb4c0487	-0.0031130628
26	0x38bd4fd9	9.027095e-05
27	0xbbbcf854	-0.0057669077
28	0xb903c5dc	-0.00012566842
29	0xbb2feedc	-0.0026845252
30	0xb9fb460e	-0.00047926645
31	0x3ce48c06	0.0278988
32	0xbd18e41e	-0.037326925
33	0x3bfb62ea	0.0076717036
34	0x3a3528e3	0.00069106946
35	0xb86b27ec	-5.6065546e-05
36	0x3d04a7a5	0.03238644
37	0xb9f8c428	-0.00047448394
38	0x3b988162	0.0046540955
39	0xb7b28602	-2.1281656e-05
40	0xb882e66e	-6.241804e-05
41	0x39e3dba3	0.00043460456
42	0xbe619945	-0.22031124
43	0x3ba43122	0.00501074
44	0x3c89defb	0.016829958
45	0xb8da28a8	-0.00010402623
46	0x3b77e69b	0.003782666
47	0xba4cc51d	-0.00078113546
48	0xbce7b9ee	-0.0282869
49	0x3c5ac85b	0.0133534325
50	0x3c42abd1	0.011881785
51	0xb7b4f684	-2.1572465e-05
52	0x39f2c7e0	0.00046306755
53	0xb8dea6e9	-0.00010616874
54	0x392b98a1	0.0001636469
55	0x39cdd7b1	0.0003926135
56	0xb8dc2ca2	-0.00010498731
57	0xbb09aae4	-0.00210064
58	0xb8771b4a	-5.8914804e-05
59	0x3c2c0f99	0.010501766
60	0x3d8f7148	0.070040286
61	0xb88f6903	-6.838331e-05
62	0xb8b91f42	-8.82731e-05
63	0x3c8819f2	0.016613934
64	0x39920209	0.00027848806
65	0x3a2054eb	0.00061161694
66	0xbce24716	-0.027621787
67	0xbd5a2553	-0.05325825
68	0xb889aba2	-6.564638e-05
69	0x3b1d841a	0.0024035037
70	0xbe615834	-0.22006303
71	0xbd04d3f7	-0.032428708
72	0x38e23939	0.00010787178
73	0x3a206f5f	0.0006120111
74	0x3a885688	0.0010401765
75	0x3984660c	0.00025253033
76	0xbac5d161	-0.0015092307
77	0x39d3bff8	0.00040388084
78	0x378ec315	1.7018561e-05
79	0xb9368000	-0.00017404556
80	0xba82e48d	-0.0009986326
81	0xb906644a	-0.00012816596
82	0x390041e7	0.00012231582
83	0xbb028117	-0.001991337
84	0xb7cd6fb1	-2.4489915e-05
85	0x3c2c9d45	0.010535543
86	0xb8c0ba91	-9.190024e-05
87	0x3b018f24	0.0019769156
88	0x352670b4	6.2003824e-07
89	0x3cf80e63	0.030280298
90	0x3c03dd43	0.008048358
91	0x3c2d8004	0.010589603
92	0xbaae4579	-0.0013295851
93	0x3a8d9ca1	0.0010804125
94	0xb99b5d5b	-0.0002963346
95	0x38a0d848	7.66968e-05
96	0x3a1e44fc	0.0006037501
97	0x3a59cc41	0.0008308329
98	0xbcf47a16	-0.029843371
99	0xbb1a5b2b	-0.0023552876
100	0x39c12904	0.00036842388
101	0xb85eb1f3	-5.3094653e-05
102	0xbb45a6ab	-0.0030159156
103	0x3a357896	0.0006922571
104	0x3a8b1190	0.0010610092
105	0x3a7a2164	0.0009541719
106	0x3923bfd5	0.00015616354
107	0xb8c77754	-9.511286e-05
108	0xbd3a143a	-0.045429446
109	0xbc7d5b13	-0.015463608
110	0x3a548732	0.0008107304
111	0xb7d09f95	-2.4869843e-05
112	0x37e33513	2.7085223e-05
113	0xbced56c4	-0.028972037
114	0x3c46e772	0.012140142
115	0x3d3b1b23	0.045680176
116	0xb7159d72	-8.91775e-06
117	0x3911f225	0.00013918483
118	0xb9bfc6e3	-0.0003657854
119	0x3da25aeb	0.079274975
120	0xb9123c07	-0.00013946007
121	0x39cf5a70	0.00039549498
122	0x39b7a065	0.00035023983
123	0xb998c8ed	-0.000291414
124	0x3a1f22b8	0.0006070542
125	0xb9245f1e	-0.00015675693
126	0xbcc981a1	-0.024597945
127	0xbc00e1dc	-0.007866349
128	0x3a6546bf	0.0008746199
129	0x3abc4c8c	0.0014366074
130	0xbba3b916	-0.004996429
131	0xbb1ce4fe	-0.00239402
132	0x3ae4d326	0.0017457947
133	0x39542efa	0.00020235396
134	0xbc073be0	-0.008254021
135	0x3bd6591c	0.0065413844
136	0x3a20e851	0.00061381335
137	0x387b3d78	5.990031e-05
138	0xbc6f9627	-0.014623201
139	0x3bfd8006	0.007736209
140	0x38acb34f	8.234998e-05
141	0xbb4dc515	-0.0031397988
142	0xb9f5c2f2	-0.00046875287
143	0xb972aa2e	-0.00023142315
144	0x3a18f46c	0.00058347615
145	0x37becd50	2.2745371e-05
146	0xb92faa34	-0.00016752706
147	0xbc479f64	-0.012183998
148	0xbb00ded4	-0.0019664066
149	0x3b078f8f	0.0020684933
150	0xbb576821	-0.0032868462
151	0xbaa5a72a	-0.001263832
152	0x38d49307	0.00010136334
153	0xbbb482e1	-0.005508766
154	0x3933451e	0.00017096518
155	0x3bd16b96	0.006390999
156	0x38a24503	7.7376164e-05
157	0xb93d0bdd	-0.00018028864
158	0xba3bcc78	-0.0007163952
159	0xbc042474	-0.008065332
160	0xbd23841c	-0.03992091
161	0xbc06f0ed	-0.008236152
162	0x3b4f0b9c	0.0031592613
163	0x38a6df7d	7.957125e-05
164	0x3b8cd164	0.0042974222
165	0xbabe15b1	-0.0014502314
166	0xbd475700	-0.048666954
167	0xb9198222	-0.00014639695
168	0xb9068244	-0.00012827764
169	0x3abab82c	0.0014245561
170	0x3d9a6b68	0.07540017
171	0xbc700911	-0.014650599
172	0xbb86d19e	-0.004114344
173	0x3782fec9	1.5615851e-05
174	0xbc15f052	-0.009151535
175	0xbae2c9d8	-0.0017302586
176	0x3d3025f7	0.043004956
177	0xbc491616	-0.012273332
178	0xbbfd8c88	-0.0077377
179	0x38de1f8f	0.00010591663
180	0x39d4038a	0.00040438428
181	0x3952bd8c	0.00020097772
182	0x39c95cbd	0.00038406803
183	0x3a1b8335	0.0005932332
184	0x37a3daa9	1.9532936e-05
185	0x386ad35d	5.5986795e-05
186	0xb837b3a0	-4.379789e-05
187	0xbbf81fc4	-0.007572146
188	0x3dd9981d	0.106247164
189	0x381b8680	3.7080143e-05
190	0xb9176e09	-0.00014441473
191	0xbc318fb1	-0.010837481
192	0x3a8a8610	0.0010568518
193	0x3b3f48db	0.0029187712
194	0x3e850d49	0.25986698
195	0x3d48303c	0.048874125
196	0x377332e7	1.449578e-05
197	0xbc4ea17d	-0.012611744
198	0x3d9f751c	0.07786009
199	0x3c455ddb	0.012046303
200	0x39871bb9	0.00025769862
201	0xb958c97f	-0.00020674428
202	0x3bb3564b	0.0054729334
203	0x3a63aab4	0.00086847995
204	0xba2d9dd5	-0.0006622945
205	0x3891a128	6.9441565e-05
206	0xb927db07	-0.00016007955
207	0x38990167	7.29587e-05
208	0x3909997e	0.00013122518
209	0x383df37d	4.5287878e-05
210	0x3a41cd9f	0.00073930057
211	0x3b908dda	0.0044114413
212	0xb9014546	-0.00012328205
213	0xbc003027	-0.00782398
214	0x378e605d	1.6972592e-05
215	0x3bd1a440	0.006397754
216	0x379173e6	1.7339316e-05
217	0xbcbf1f13	-0.023330247
218	0x3c88d030	0.016700834
219	0x3d681d5d	0.056668628
220	0x3b83a87b	0.004017887
221	0x3a3ba0b9	0.00071574334
222	0xba67b8b8	-0.0008839476
223	0xb9067f78	-0.00012826722
224	0x3b45e4c0	0.003019616
225	0x3b8295c6	0.0039851395
226	0x3c22d98b	0.009939562
227	0xbb840682	-0.004029096
228	0x39e8eca5	0.00044426802
229	0x38833859	6.257062e-05
230	0xbba1f173	-0.004942113
231	0x3b62d961	0.0034614431
232	0x3a4b1e4d	0.00077483506
233	0x3a17d7be	0.0005792341
234	0x3ac43b50	0.001497129
235	0xb9cb21a4	-0.00038744241
236	0x3c6cbaf6	0.014448872
237	0x3980abba	0.0002454201
238	0x3b0a3eac	0.0021094484
239	0xb4c511e6	-3.6707132e-07
240	0x353be327	6.999348e-07
241	0xbd04b1da	-0.032396175
242	0xbb43b88c	-0.0029864637
243	0x3cc02f2b	0.023459991
244	0xb999ae18	-0.00029312144
245	0xb836b910	-4.3564534e-05
246	0xba8b9f26	-0.0010652288
247	0x3e8efe50	0.279284
248	0xb92c60a8	-0.00016439206
249	0x3a8689c4	0.0010264446
250	0x39e07fd2	0.00042819843
251	0xbb01fc6d	-0.0019834295
252	0x3b01cda1	0.0019806402
253	0xb9e978bd	-0.0004453118
254	0x3bf36c62	0.0074286917
255	0x3b905115	0.004404197

action_parameters_output_layer.bias f4 [104]
0	0x3dec539c	0.11539385
1	0x3e9d0c20	0.30673313
2	0xbb11cf1a	-0.0022248686
3	0x3d866fde	0.06564306
4	0xba726e35	-0.00092479895
5	0xbaf6fd87	-0.0018843868
6	0x3e206c68	0.15666354
7	0x3ea113d1	0.3146043
8	0x3e718a8f	0.23588012
9	0x3ebd4b3f	0.3697147
10	0x3c32fed0	0.01092501
11	0x3e7e940b	0.24861161
12	0x3e4915e4	0.19637257
13	0x3eb5a4cc	0.35477293
14	0x3ed08409	0.40725735
15	0x3e346bb5	0.17619212
16	0x3ee02480	0.43777847
17	0xbcc7b5e3	-0.024378723
18	0x3ecb86bd	0.39751235
19	0x3eb4f9ed	0.35346928
20	0x3ed76e6f	0.42076442
21	0x3de78ade	0.11305784
22	0x3e9cdb61	0.30636123
23	0x3e9db9dc	0.30805862
24	0xb9c31adc	-0.0003721331
25	0x3e85ec48	0.2615683
26	0x3d99c68b	0.07508572
27	0x3e6ad753	0.22933702
28	0x3e883f2e	0.26610702
29	0x3d536608	0.051610976
30	0xbbe6d2c4	-0.007044168
31	0x3e691701	0.22762682
32	0x3e889655	0.26677194
33	0x3e958164	0.2920028
34	0x3e118b86	0.1421338
35	0x3e428d89	0.18999304
36	0xbc524a44	-0.012835089
37	0x3ccb5d7a	0.024824847
38	0xbb626c43	-0.0034549392
39	0x3e0b4de1	0.13603927
40	0x3e211bb6	0.15733227
41	0x3e36b2a9	0.17841591
42	0x3e1ab0a7	0.1510645
43	0x3c9df00c	0.019279502
44	0x3e3a4a10	0.18192315
45	0x3a487cf1	0.0007648012
46	0x3b8be0e5	0.004268753
47	0x3e57b488	0.21064961
48	0x3e73b41c	0.23799175
49	0x3e311687	0.1729375
50	0x3cb089fe	0.021550175
51	0x3e5c7c5b	0.21531813
52	0x3ed13be7	0.40866014
53	0x3ddcdb89	0.107840605
54	0x3d85cb58	0.06532925
55	0x3e994d70	0.29941893
56	0x3e772bca	0.24137798
57	0x3e8ee0ef	0.27905986
58	0x3ede70c7	0.43445417
59	0x3d105247	0.035234716
60	0x3ed603ad	0.4179968
61	0x3ea319e1	0.31855682
62	0x3e1803dc	0.14845222
63	0x3ccfb175	0.025353173
64	0x3e4e4bb5	0.20146067
65	0x3c59bc6e	0.013289554
66	0x3d860230	0.06543386
67	0x3ebe8c4d	0.37216416
68	0x3e4802b3	0.1953228
69	0x3ebc699a	0.36799318
70	0x3b0d6fab	0.0021581452
71	0x3ed0ee26	0.40806693
72	0x3e5ec0e8	0.21753275
73	0x3e013a8f	0.12619995
74	0x3eb96d00	0.36215973
75	0x3e8c3634	0.27385104
76	0x3ebf2894	0.37335646
77	0x3e3f42d9	0.18677844
78	0x3c868a76	0.016423445
79	0x3ee4d1e1	0.44691375
80	0x3e16875e	0.14700076
81	0x3eabbb9c	0.33541572
82	0x3e130d27	0.14360486
83	0x3e8352bf	0.25649068
84	0x3ed0aa5c	0.40754974
85	0x3eadb33f	0.33925816
86	0x3e577720	0.21041536
87	0x3d43e005	0.047821064
88	0x3e6330d8	0.22186601
89	0x3ebc88fe	0.36823267
90	0x3edd3786	0.43206424
91	0x3eb30839	0.3496721
92	0x3e828291	0.2549024
93	0x3c3dd42f	0.011586233
94	0xb8ad2274	-8.2557e-05
95	0x3e8dc938	0.2769258
96	0x3b895228	0.004190702
97	0x3ed9ce59	0.42540243
98	0x3deb36d0	0.11485064
99	0x3d552304	0.052035347
100	0x3ee3c2ef	0.4448466
101	0x3aaf1bda	0.0013359741
102	0x3e81fe92	0.25389534
103	0xba3c050e	-0.0007172384

action_parameters_passthrough_layer.weight f4 [104, 2]
0	0x00000000	0.0
1	0x00000000	0.0
2	0x00000000	0.0
3	0x00000000	0.0
4	0x00000000	0.0
5	0x00000000	0.0
6	0x00000000	0.0
7	0x00000000	0.0
8	0x00000000	0.0
9	0x00000000	0.0
10	0x00000000	0.0
11	0x00000000	0.0
12	0x00000000	0.0
13	0x00000000	0.0
14	0x00000000	0.0
15	0x00000000	0.0
16	0x00000000	0.0
17	0x00000000	0.0
18	0x00000000	0.0
19	0x00000000	0.0
20	0x00000000	0.0
21	0x00000000	0.0
22	0x00000000	0.0
23	0x00000000	0.0
24	0x00000000	0.0
25	0x00000000	0.0
26	0x00000000	0.0
27	0x00000000	0.0
28	0x00000000	0.0
29	0x00000000	0.0
30	0x00000000	0.0
31	0x00000000	0.0
32	0x00000000	0.0
33	0x00000000	0.0
34	0x00000000	0.0
35	0x00000000	0.0
36	0x00000000	0.0
37	0x00000000	0.0
38	0x00000000	0.0
39	0x00000000	0.0
40	0x00000000	0.0
41	0x00000000	0.0
42	0x00000000	0.0
43	0x00000000	0.0
44	0x00000000	0.0
45	0x00000000	0.0
46	0x00000000	0.0
47	0x00000000	0.0
48	0x00000000	0.0
49	0x00000000	0.0
50	0x00000000	0.0
51	0x00000000	0.0
52	0x00000000	0.0
53	0x00000000	0.0
54	0x00000000	0.0
55	0x00000000	0.0
56	0x00000000	0.0
57	0x00000000	0.0
58	0x00000000	0.0
59	0x00000000	0.0
60	0x00000000	0.0
61	0x00000000	0.0
62	0x00000000	0.0
63	0x00000000	0.0
64	0x00000000	0.0
65	0x00000000	0.0
66	0x00000000	0.0
67	0x00000000	0.0
68	0x00000000	0.0
69	0x00000000	0.0
70	0x00000000	0.0
71	0x00000000	0.0
72	0x00000000	0.0
73	0x00000000	0.0
74	0x00000000	0.0
75	0x00000000	0.0
76	0x00000000	0.0
77	0x00000000	0.0
78	0x00000000	0.0
79	0x00000000	0.0
80	0x00000000	0.0
81	0x00000000	0.0
82	0x00000000	0.0
83	0x00000000	0.0
84	0x00000000	0.0
85	0x00000000	0.0
86	0x00000000	0.0
87	0x00000000	0.0
88	0x00000000	0.0
89	0x00000000	0.0
90	0x00000000	0.0
91	0x00000000	0.0
92	0x00000000	0.0
93	0x00000000	0.0
94	0x00000000	0.0
95	0x00000000	0.0
96	0x00000000	0.0
97	0x00000000	0.0
98	0x00000000	0.0
99	0x00000000	0.0
100	0x00000000	0.0
101	0x00000000	0.0
102	0x00000000	0.0
103	0x00000000	0.0
104	0x00000000	0.0
105	0x00000000	0.0
106	0x00000000	0.0
107	0x00000000	0.0
108	0x00000000	0.0
109	0x00000000	0.0
110	0x00000000	0.0
111	0x00000000	0.0
112	0x00000000	0.0
113	0x00000000	0.0
114	0x00000000	0.0
115	0x00000000	0.0
116	0x00000000	0.0
117	0x00000000	0.0
118	0x00000000	0.0
119	0x00000000	0.0
120	0x00000000	0.0
121	0x00000000	0.0
122	0x00000000	0.0
123	0x00000000	0.0
124	0x00000000	0.0
125	0x00000000	0.0
126	0x00000000	0.0
127	0x00000000	0.0
128	0x00000000	0.0
129	0x00000000	0.0
130	0x00000000	0.0
131	0x00000000	0.0
132	0x00000000	0.0
133	0x00000000	0.0
134	0x00000000	0.0
135	0x00000000	0.0
136	0x00000000	0.0
137	0x00000000	0.0
138	0x00000000	0.0
139	0x00000000	0.0
140	0x00000000	0.0
141	0x00000000	0.0
142	0x00000000	0.0
143	0x00000000	0.0
144	0x00000000	0.0
145	0x00000000	0.0
146	0x00000000	0.0
147	0x00000000	0.0
148	0x00000000	0.0
149	0x00000000	0.0
150	0x00000000	0.0
151	0x00000000	0.0
152	0x00000000	0.0
153	0x00000000	0.0
154	0x00000000	0.0
155	0x00000000	0.0
156	0x00000000	0.0
157	0x00000000	0.0
158	0x00000000	0.0
159	0x00000000	0.0
160	0x00000000	0.0
161	0x00000000	0.0
162	0x00000000	0.0
163	0x00000000	0.0
164	0x00000000	0.0
165	0x00000000	0.0
166	0x00000000	0.0
167	0x00000000	0.0
168	0x00000000	0.0
169	0x00000000	0.0
170	0x00000000	0.0
171	0x00000000	0.0
172	0x00000000	0.0
173	0x00000000	0.0
174	0x00000000	0.0
175	0x00000000	0.0
176	0x00000000	0.0
177	0x00000000	0.0
178	0x00000000	0.0
179	0x00000000	0.0
180	0x00000000	0.0
181	0x00000000	0.0
182	0x00000000	0.0
183	0x00000000	0.0
184	0x00000000	0.0
185	0x00000000	0.0
186	0x00000000	0.0
187	0x00000000	0.0
188	0x00000000	0.0
189	0x00000000	0.0
190	0x00000000	0.0
191	0x00000000	0.0
192	0x00000000	0.0
193	0x00000000	0.0
194	0x00000000	0.0
195	0x00000000	0.0
196	0x00000000	0.0
197	0x00000000	0.0
198	0x00000000	0.0
199	0x00000000	0.0
200	0x00000000	0.0
201	0x00000000	0.0
202	0x00000000	0.0
203	0x00000000	0.0
204	0x00000000	0.0
205	0x00000000	0.0
206	0x00000000	0.0
207	0x00000000	0.0

action_parameters_passthrough_layer.bias f4 [104]
0	0x00000000	0.0
1	0x00000000	0.0
2	0x00000000	0.0
3	0x00000000	0.0
4	0x00000000	0.0
5	0x00000000	0.0
6	0x00000000	0.0
7	0x00000000	0.0
8	0x00000000	0.0
9	0x00000000	0.0
10	0x00000000	0.0
11	0x00000000	0.0
12	0x00000000	0.0
13	0x00000000	0.0
14	0x00000000	0.0
15	0x00000000	0.0
16	0x00000000	0.0
17	0x00000000	0.0
18	0x00000000	0.0
19	0x00000000	0.0
20	0x00000000	0.0
21	0x00000000	0.0
22	0x00000000	0.0
23	0x00000000	0.0
24	0x00000000	0.0
25	0x00000000	0.0
26	0x00000000	0.0
27	0x00000000	0.0
28	0x00000000	0.0
29	0x00000000	0.0
30	0x00000000	0.0
31	0x00000000	0.0
32	0x00000000	0.0
33	0x00000000	0.0
34	0x00000000	0.0
35	0x00000000	0.0
36	0x00000000	0.0
37	0x00000000	0.0
38	0x00000000	0.0
39	0x00000000	0.0
40	0x00000000	0.0
41	0x00000000	0.0
42	0x00000000	0.0
43	0x00000000	0.0
44	0x00000000	0.0
45	0x00000000	0.0
46	0x00000000	0.0
47	0x00000000	0.0
48	0x00000000	0.0
49	0x00000000	0.0
50	0x00000000	0.0
51	0x00000000	0.0
52	0x00000000	0.0
53	0x00000000	0.0
54	0x00000000	0.0
55	0x00000000	0.0
56	0x00000000	0.0
57	0x00000000	0.0
58	0x00000000	0.0
59	0x00000000	0.0
60	0x00000000	0.0
61	0x00000000	0.0
62	0x00000000	0.0
63	0x00000000	0.0
64	0x00000000	0.0
65	0x00000000	0.0
66	0x00000000	0.0
67	0x00000000	0.0
68	0x00000000	0.0
69	0x00000000	0.0
70	0x00000000	0.0
71	0x00000000	0.0
72	0x00000000	0.0
73	0x00000000	0.0
74	0x00000000	0.0
75	0x00000000	0.0
76	0x00000000	0.0
77	0x00000000	0.0
78	0x00000000	0.0
79	0x00000000	0.0
80	0x00000000	0.0
81	0x00000000	0.0
82	0x00000000	0.0
83	0x00000000	0.0
84	0x00000000	0.0
85	0x00000000	0.0
86	0x00000000	0.0
87	0x00000000	0.0
88	0x00000000	0.0
89	0x00000000	0.0
90	0x00000000	0.0
91	0x00000000	0.0
92	0x00000000	0.0
93	0x00000000	0.0
94	0x00000000	0.0
95	0x00000000	0.0
96	0x00000000	0.0
97	0x00000000	0.0
98	0x00000000	0.0
99	0x00000000	0.0
100	0x00000000	0.0
101	0x00000000	0.0
102	0x00000000	0.0
103	0x00000000	0.0
